recipe_model.pth (torch, 364540 bytes, 8 tensors)

encoder.0.weight f4 [256, 47]
00000000: 86c0 e63d 84e3 19be 1581 2c3c 81b5 12be
00000010: 4936 fb3d 45a0 4bbc 4514 69bd 7a62 bbbd
00000020: 3f91 973d dee8 9dbd 6f9a d7bd 8faa efbd
00000030: fba0 aa3c 4861 3dbd 6474 13be 1fd8 debc
00000040: d28b 783c 7740 f13d d65a 8e3d cf2f 0d3e
00000050: b735 b63d ad8a 083e c5b3 b2bd 0fa9 033e
00000060: 48ba c6bd b059 713d 402e 8f3d 71fb 663d
00000070: f547 193d 6ab4 b33b 4476 16be c040 c3bd
00000080: a718 e03d da27 bb3d b933 99bd fb0d 24bd
00000090: 80eb 17be bd01 943c e4a8 00bd e03e bf3b
000000a0: bd98 153e 5780 3c3b e822 a93c 3f9e d43d
000000b0: b729 6dbd 4030 e5bb 0cc5 29be 9c1b 5fbd
000000c0: 46d0 29bd 4ce8 b2bd f047 27bd b8e3 25bd
000000d0: db30 493c 6de2 613b 2475 8abd 3ef8 ab3c
000000e0: f67d 9dbd d73f c73d 4bb9 103e 00c8 62bd
000000f0: b784 e5bc a0ba 73bb 36d2 8abd a52c e63b
00000100: a1d9 0fbe f546 ad3d 5593 85bd 7fd0 6abc
00000110: ddc0 cabd d8ad fb3d 8529 bd3d e9f3 1abc
00000120: 62b1 39bd 985b c03d 001d e7bd 6626 38bc
00000130: 1931 6dbd 6e92 d5bd 8db0 813c ae2e d3bd
00000140: b154 09be 3143 f83d e2d4 9f3c 0ee0 2abd
00000150: 0561 f3bd 1a78 ab3d 44e1 87bd 133a 863c
00000160: 9ccc e03d eea9 363d 0b19 01be c4ff 8ebd
00000170: 00e1 673c 2de4 37bd 6087 d4bd b406 05be
00000180: ec66 913d e6bd e93d 8a93 753d e1be acbc
00000190: cb3f d13d 7abe 0cbe 635c b0bd 8e36 b3bd
000001a0: 2614 f83c 0b8c 9b3c 3d18 343d 5c47 0bbd
000001b0: 209f 90bd 0328 49bd 87b8 243e 4408 a7bb
000001c0: 7536 433d 6aa6 b73b 3ca6 d7bd 2f6f e7bc
000001d0: 7b59 e1bc be47 e03c 0f3d 4abb 6172 b53d
000001e0: d672 a53d da9a ad3d e5d1 bd3b dc41 11be
000001f0: 20e6 87bb 3e4f cbbd a45d b33c 9f42 e03d
00000200: 6ef7 14be 5794 183e 8151 713d 1788 333d
00000210: 7c1e 5fbc 4648 18bd 656c 80bb ea2e cbbc
00000220: 03e5 153d 973f 34bd 7196 89bd 8b60 333d
00000230: 35cd 563d e26f 0b3d fd74 b23c ce3e a5bd
00000240: a8ff 9dbd 7133 0b3e 39aa 0ebe 785c 123e
00000250: 7c41 08bd 2dd0 0bbe 11bc b0bc f936 f33d
00000260: 7e70 c63d 2e7c 1c3e dba6 17bc 6088 f2bd
00000270: bef6 76bd 51ad 973c 3f25 bbbd 1633 3bbd
00000280: 35be e5bc b53a ff3d 1b0d 0ebd 973a 103d
00000290: ccbb d53b a768 963c 3c15 8b3d 52ae a63b
000002a0: c6bf d03d 85c4 963a 7a05 4a3d 82f8 05bd
000002b0: c0c0 86bc a296 0b3e 18cc 38bd 26c5 71bd
000002c0: ab03 dcbd dcdc ee3d 93dc 53bd d47b 17be
000002d0: 3593 8bbd 271a b53d bd85 ca3d e4c0 d63d
000002e0: 117a c73d 1909 803d dd04 623d ad68 613d
000002f0: 34c3 d0bd dc79 c33d efa5 b9bd 8771 0a3e
00000300: c4d8 513c 5d2f ec3d b6f1 753d 873b 26bd
00000310: ee58 1a3c 5e84 a53d 827d afbd b852 43bd
00000320: 1569 643d 2377 f4bd d900 a8bd ea4a d2bd
00000330: 4132 a5bd 3ecd ee3d 7e9b c4bd f85a 0ebe
00000340: 084b 863c 4f04 ba3d f14c 05be da92 e7bd
00000350: a83f d3bd 327b 03be a819 903c 7e59 4fbd
00000360: ba67 40bd da74 babd 9754 013e 125f 0bbe
00000370: 0220 9abc ab56 fe3c 4fc8 00be af21 0dbd
00000380: a06b ec3d af57 62bd dca5 f3bd 1bd5 9ebc
00000390: d735 3b3c 6934 733d e2af 13be 8ebe 55bc
000003a0: 3362 f5bd 253a d03d 0834 0f3d 20ab 10bc
000003b0: 7838 0fbc c270 fd3d cb0d ac3d dfec 673d
000003c0: 2bbf 4fbd 9f45 09bd 102b e03c eeca f13d
000003d0: d481 0a3e 8ba6 073e 445c 1b3e 4d74 07be
000003e0: 3b14 c93d 502c d63c d6cf 363d 316e 8b3c
000003f0: eceb 83bd c025 d83d 4583 23bd 5442 eb3c
0.1126719 -0.15028197 0.010528822 -0.14327051 0.122662134 -0.012428348 -0.056904096 -0.09149642
0.0740075 -0.077104315 -0.10527503 -0.11702453 0.020828715 -0.046235353 -0.14399868 -0.027202664
0.0151700545 0.11779874 0.06950919 0.13787769 0.08896964 0.1333415 -0.087256946 0.1285746
-0.09703499 0.058923423 0.06991243 0.056392137 0.03742214 0.0054841535 -0.14693552 -0.095338345
0.10942202 0.091384605 -0.074805684 -0.040052395 -0.1483593 0.018067235 -0.031411067 0.0058363527
0.14609046 0.002876302 0.020646527 0.103817455 -0.05790111 -0.0069942772 -0.16579074 -0.05446969
-0.04145839 -0.08735713 -0.04084009 -0.040500373 0.012279714 0.0034467236 -0.06760624 0.020992395
-0.07690041 0.09728973 0.14133184 -0.055366516 -0.028017385 -0.0037190095 -0.06778376 0.007024365
-0.14047863 0.084607996 -0.06522242 -0.014331936 -0.09900067 0.122890174 0.09236435 -0.009457567
-0.04533518 0.0939247 -0.11284828 -0.011239624 -0.05790815 -0.1042832 0.015831256 -0.10311638
-0.13411213 0.12122191 0.01951069 -0.04171758 -0.118837394 0.08372517 -0.06634763 0.016385114
0.10976526 0.04459565 -0.1260721 -0.06982377 0.014152765 -0.04489534 -0.10377383 -0.12990838
0.07099709 0.114131734 0.059955157 -0.021087112 0.10217246 -0.13744536 -0.08611371 -0.0875064
0.030283045 0.018987676 0.043968428 -0.0340036 -0.07061601 -0.049110424 0.16086017 -0.005097421
0.047659356 0.005604555 -0.105297536 -0.028251259 -0.027508488 0.02737796 -0.0030859148 0.08859707
0.08078544 0.08476801 0.0057928436 -0.1418528 -0.004147306 -0.099272236 0.021895237 0.10950207
-0.14547512 0.14900337 0.05891562 0.043830957 -0.013618108 -0.0371783 -0.0039191716 -0.024802644
0.036595356 -0.044005957 -0.067181475 0.043793242 0.052441794 0.034042247 0.0217843 -0.0806862
-0.07714778 0.13593842 -0.13932122 0.14293087 -0.033265576 -0.13653632 -0.021574052 0.118757196
0.09689425 0.15281746 -0.00925609 -0.11842418 -0.060293905 0.01851526 -0.091379635 -0.045703016
-0.0280448 0.12462369 -0.034680467 0.035212126 0.0065226313 0.018360449 0.067911595 0.0050866986
0.10192828 0.0011502659 0.04932163 -0.0327077 -0.016449332 0.1363168 -0.045116514 -0.059025906
-0.10742887 0.11663219 -0.051724028 -0.1479333 -0.06815187 0.08842879 0.0988879 0.1048601
0.09740079 0.06251735 0.05518042 0.055031467 -0.10193482 0.09544727 -0.090648524 0.1351987
0.012808029 0.11532471 0.060044967 -0.040584113 0.009420617 0.08081888 -0.085688606 -0.04768631
0.055764277 -0.11936786 -0.08203287 -0.10268195 -0.08066226 0.116602406 -0.0959997 -0.1390189
0.0163932 0.09082853 -0.13017632 -0.113073066 -0.10314876 -0.12839964 0.017590359 -0.050622456
-0.04697392 -0.09104319 0.12629925 -0.13610485 -0.01881409 0.031047186 -0.12576412 -0.03445595
0.11543965 -0.055259403 -0.118968695 -0.019388726 0.011426411 0.059376154 -0.14422563 -0.01304592
-0.11981621 0.1016734 0.03496173 -0.008829862 -0.008741491 0.123750225 0.08401068 0.056622382
-0.05071942 -0.03351366 0.027364284 0.11806284 0.13526088 0.13247125 0.15171915 -0.13227959
0.09818312 0.026144177 0.0446318 0.017020317 -0.06441483 0.10554075 -0.03992011 0.028718151

encoder.0.bias f4 [256]
00000000: bfd1 113e f7e2 bcbd a4a1 f33c d395 1b3d
00000010: a4c0 d43c ef18 203d e18d 61bd bf1b 3f3d
00000020: 8ec9 b2bc e089 62bd 7c7a dbbd 89d5 f13d
00000030: 1f84 c2bc 1cb0 9f3d 28c9 7b3d b9b2 ff3d
00000040: 4d23 f4bd 42ab c1bb f46a 58bd 87e3 233c
00000050: 74ba b3bc b5f7 ce3c a891 cdbd 68bf 9d3d
00000060: f2f5 13bc faae fdbb d75f f2bc b16b 3fbd
00000070: 08d8 edbd 2dd6 633b 8b12 9d3d 67e4 80bc
00000080: a924 b33d 410b f1bd a24b c7bd 319d d2bd
00000090: e7cf 963d d868 18bc 1539 b03c 4c49 6f3c
000000a0: 75fd 883d 567d 233c edf1 c63d 9338 193e
000000b0: 3217 803d aa6e 353d 27e9 043c 6a53 ee3c
000000c0: 278e 5f3d cc57 c3bd 7fe9 b23c 15dc 9f3d
000000d0: 7877 71bd 3972 b0bd d0f1 f93d bb7f 1abe
000000e0: 6878 893b 357f 0c3e 8c53 d63d 4f73 b8bd
000000f0: aa20 7a3d 91e2 003e eb7b 0e3e 8573 153e
00000100: ff39 273c e4be d43d 3d97 fcbd dc28 03be
00000110: 074b 013e 79c2 60bd ca9b 823d 3b34 87bd
00000120: eef9 16bc 7c00 a23d cff6 debd a881 7e3c
00000130: 5562 cfbd 1df1 48bd d0a2 61bd a4a8 e5bc
00000140: e67f f93d a315 a9bd cb72 babc 7a9a c73c
00000150: 82d8 a33d bfbe 1c3e 2e28 893a 5ee5 edbd
00000160: 05ce d8bc fbc7 883d 8775 043e 04b7 053c
00000170: f737 ac3d 86b8 bfbc c75a b13d 2a64 4fbd
00000180: 19c7 efbd 21f4 563d fc50 cebc 7a02 aa3d
00000190: 0169 87bb f4e9 0fbd 40ca 53bd 8592 6e3d
000001a0: 60e3 a3bd 926d d8bd 6d85 eebc 500a 96bd
000001b0: 3c01 f03d f73e 033e 9feb edbd 620c a4bd
000001c0: d0c7 913c bb15 cf3d 274f c8bd 979d d83a
000001d0: 4965 ebbd 7bd0 3a3d c3df 5cbc 01fe 393d
000001e0: 8130 c23d d2b3 8ebd ecaf 9abc b026 bbbd
000001f0: 60f2 af3a 74a1 343e bb46 023e 75ef 013e
00000200: 2b83 0dbd e760 013e edb1 c1bd abbc 47bd
00000210: faa3 553d 3749 eb3d 6b91 e93d 4998 24bc
00000220: 5033 f03d b399 123c 2473 91bd 4979 1d3e
00000230: d9b3 0cbe 28fe 59bd 96b3 51bd cd1a 853c
00000240: 4b76 e4bd f11a 683d 3132 f1bd a564 2ebc
00000250: a374 953c 1c7f 56bd 04cf 05be 349d aebd
00000260: e33f 093e 26ab 97bd 29bc 463d ae08 4a3d
00000270: b89b c13c 60b2 bdbd f0d2 b13d fdef b9bb
00000280: 3d4f f63d 7b3b d03d 1768 48bd 804d e5bd
00000290: 5b18 d23d 7260 0e3e e6e3 59ba 1f56 e13d
000002a0: 1a65 d53d 27f4 18bd 4654 4d3c a13d 77bd
000002b0: 413f 6dbd d7df 86bd e087 033d e52c 1b3c
000002c0: 5434 c1bc da45 243b 2318 c6bd 6c5f 67bd
000002d0: 48b4 dabd 28aa c23d 8745 83bd cd5e 8a3d
000002e0: 920b a4bd f0c6 b13d 3681 10be 78cd 07be
000002f0: e957 6e3d 1d6a f73d 8e94 0bbe 9aba 253d
00000300: ab5a db3c 5511 e9bd eb51 533d 8863 a5bd
00000310: 1086 0b3d fea7 b03d 8b1c bf3d bbc8 68bd
00000320: 70a0 003e 6efe 1c3e 00f2 e3bd 8446 b73d
00000330: aae5 8dbd bcd1 a63c f4b9 fabd a674 113d
00000340: 1a37 3b3d 138f 263d db32 593d b169 8bbd
00000350: 7b05 823d 4746 053e c388 7a3c 1a83 853d
00000360: 1ba8 9e3b 25f3 543d 7122 8e3d 7254 f23c
00000370: c7e5 b13d aaed c3bd 603b 2b3d dfa7 c3bc
00000380: af9c 853d 4ec5 ec3d e8fb f73d 42d9 95bd
00000390: f42f 1c3e 37e6 c43d 57c7 ea3d deaf 55bd
000003a0: 90e1 2dbd a0d0 53bd 9f94 f33d fca0 a1bd
000003b0: 2fcb 113d a3ef 2d3d c6a6 9fbd 6917 eebd
000003c0: 4fb3 69bd 7a35 b0bd 4101 0a3d 90db 043d
000003d0: a65e dd3d 0fab 003e 72da b93d 6e43 033d
000003e0: 0698 ae3a 5d1b 7e3d aa47 c6bd ec1b 82bd
000003f0: f04e 043e 29ac 133d 2059 aabc 1b58 d0bd
0.14240168 -0.092229776 0.029740162 0.03798468 0.025970764 0.03908628 -0.055066947 0.04665732
-0.021824624 -0.05530727 -0.107167214 0.11808307 -0.02374464 0.07797262 0.061471134 0.124852605
-0.119207956 -0.005910308 -0.052836373 0.010002977 -0.021939494 0.0252646 -0.10037547 0.077025235
-0.009030806 -0.007741806 -0.029586716 -0.046733562 -0.1161347 0.003476511 0.076695524 -0.01573391
0.08747227 -0.11769725 -0.09731223 -0.10283888 0.07363873 -0.00930234 0.021511594 0.014604878
0.06688968 0.009978613 0.097141124 0.14962988 0.06254424 0.04429499 0.0081122285 0.02909251
0.054578926 -0.0953823 0.021839855 0.07805649 -0.058951825 -0.08615536 0.12204325 -0.15087788
0.0041952617 0.137204 0.10465154 -0.09006368 0.061066307 0.12586428 0.13914458 0.14594848
0.010206698 0.10387972 -0.12333534 -0.12808555 0.12626277 -0.054872964 0.06377371 -0.06601759
-0.009214861 0.07910249 -0.10886919 0.015533842 -0.10126177 -0.04905807 -0.05508691 -0.028034516
0.12182598 -0.0825608 -0.022759816 0.024365652 0.0800028 0.15307139 0.0010464245 -0.11616014
-0.026465425 0.06678768 0.12935458 0.00816131 0.08409112 -0.023403417 0.086598925 -0.050632633
-0.11707897 0.052478913 -0.0251851 0.083012536 -0.0041323905 -0.035135224 -0.051706553 0.0582452
-0.08002353 -0.10567774 -0.029116357 -0.07326186 0.117189854 0.12816988 -0.11617207 -0.08010174
0.017795473 0.10111567 -0.09780722 0.0016526458 -0.11493928 0.04560898 -0.013481083 0.045408253
0.09481908 -0.06967892 -0.018882714 -0.091382384 0.0013423674 0.17639714 0.12722294 0.12689002
-0.03454892 0.12634622 -0.09457765 -0.048763912 0.052158333 0.11488574 0.114046894 -0.010046073
0.11728537 0.008947778 -0.071020395 0.15378298 -0.13740481 -0.053220898 -0.051196657 0.016248131
-0.11155375 0.05666632 -0.117771514 -0.010644113 0.018244093 -0.052367315 -0.13067251 -0.08526078
0.13403277 -0.07405691 0.048519287 0.049324684 0.023633823 -0.09262538 0.08682811 -0.005674361
0.12026832 0.10167595 -0.048927393 -0.111964226 0.10258552 0.13903978 -0.00083118526 0.110027544
0.10419674 -0.037342217 0.012532299 -0.06036151 -0.05792165 -0.06585663 0.032112002 0.009471153
-0.023584522 0.002506605 -0.096725725 -0.056487486 -0.10678917 0.09505111 -0.06409746 0.06756363
-0.08010019 0.086805224 -0.1411179 -0.13261974 0.058189306 0.120807864 -0.13630888 0.04046116
0.026776632 -0.11380259 0.051591795 -0.08075625 0.0340634 0.08625792 0.09331616 -0.056832056
0.12561202 0.15331432 -0.11130142 0.08948997 -0.069285706 0.020363681 -0.12242499 0.035511635
0.045706846 0.04066379 0.053027015 -0.068072684 0.063487016 0.1301509 0.015291396 0.06519146
0.004841817 0.051989693 0.06940163 0.029581282 0.08686405 -0.09566815 0.04180467 -0.023883758
0.06524026 0.115610704 0.12108594 -0.07316829 0.15252668 0.096142225 0.11463802 -0.052169673
-0.04245144 -0.051712632 0.118935816 -0.078920335 0.03559416 0.042464864 -0.077954814 -0.11625559
-0.057055768 -0.0860395 0.033692602 0.032435954 0.108090684 0.12565254 0.09074868 0.032046728
0.0013320453 0.062037814 -0.096816376 -0.06352982 0.12920737 0.036052857 -0.020794451 -0.10173055

encoder.2.weight f4 [128, 256]
00000000: bc1f 9b3d c006 6f3c 828e 5d3c 0e8e bbbc
00000010: e8a7 50bc a039 463d 5232 1a3d 6676 1cbd
00000020: 564c 093d 3f19 1b3d 583e 8bbc f43d cf3c
00000030: 00f4 3039 0ca7 9d3d 08e3 403c edfe 913c
00000040: 008f 24bb 3cb1 d63c 3862 273d 8b49 bebc
00000050: c869 053d 44d6 f93c c849 283d c7cf cabc
00000060: 82f6 b23c 51fa 793d ed11 903d 3080 7bbc
00000070: 2afa 3b3d 11d1 1f3d 4e40 603b 81f6 0c3d
00000080: 7dff 8d3d bc51 f03c 15da abbc e877 89bc
00000090: d97b 54bd 004b debb c53c 07bd 611f 0bbd
000000a0: 7baf 553a 5ca2 af3c bfc1 453c 3493 51bd
000000b0: ec91 0a3c d866 883d 242a 653d 6c45 2b3c
000000c0: 556e e93c 0813 683c baf9 323d b601 a2bc
000000d0: 7437 8d3c d043 e53b 6a44 0d3b 16c0 b2bc
000000e0: 6171 ef3c b887 c9bc 0ce9 84bc 3b7e 7e3d
000000f0: 2509 3ebc 51e3 353d 2451 ec3c e2ef 543d
00000100: 28ce 0b3d b953 0dbd 3c3e a0bc 04d1 533d
00000110: 0620 103c 653a 7e3b 31a8 643c 85c3 87bc
00000120: fc3b 6a3d a2f0 753d 6226 273d 34cf 9dbb
00000130: 1a47 923d 7251 28bd 51de 263d b402 eb3c
00000140: 189b 8a3d 3488 f43c cd8a 053d 18fc 413c
00000150: 7f48 043d eb8a 503b c661 e0bc 7cce febc
00000160: 6d46 a7bd 13da 753d b769 f73b f654 54bc
00000170: 8567 373d 2bc5 f43c 4db9 803d 631a 1dbd
00000180: e06f 103c ce08 16bc da54 6dbd d9c4 02bd
00000190: 6b19 d03c 4177 153d b43c abbc 489f 47bd
000001a0: 408d 4a3c c0c2 61bb 9933 123c b32b 313d
000001b0: 6e96 053d 8ab7 2f3d e039 4e3d 64bd 02bd
000001c0: 0c79 e93c 8773 263c 4c70 de3c d071 2cbd
000001d0: 09ae 8e3c 307a 2dbd 94b4 5cbd 6827 083d
000001e0: e04e d43c 8389 8abc 226c 913d fc16 dcbc
000001f0: 4eae 533d 7e30 2abc 8d32 953c 5497 093d
00000200: 4df9 773d 39fe d53c ee92 343d 734a 6a3c
00000210: 4451 813d 85f7 123d 501e 5f3c a686 32bd
00000220: eb04 693d 6da4 a2bc 448d 163d 2320 dbbc
00000230: 20fa 8a3c 45d5 2abd 10d4 333c cf07 4e3d
00000240: 705f 233d 0abf 323d 86c2 7d3d e6bb 283d
00000250: e683 cfbb ddea 6e3d eab0 45bd a7fe 4abd
00000260: 5c79 0c3b e9c3 d8bc 9cca 56bc 7bf4 963d
00000270: f56d 933d 9005 3a3d cea3 173d db45 11bc
00000280: 7313 e5bc 28d4 d63c 7935 38bc 61ff 023d
00000290: b61d 783d d0d6 713d e5df bc3c 36e7 02bd
000002a0: c33f 793d 1d29 0e3c 9486 15bd 0f21 dc3c
000002b0: 9a74 393d 5847 62bc 4ef0 f13c b8d2 333d
000002c0: d661 ebbc 23ec 55bd 206d 46bd 6ebe 37bd
000002d0: 1424 1abd ff06 a43c e888 0f3c 0fa2 21bc
000002e0: a111 c93b ae43 27bd 5b13 673c 0082 7e3c
000002f0: bb50 483c 8a73 523d c8cc 463d 3467 903d
00000300: 5c5c 1cbd be3f 2c3d d559 9bbc be1a 0b3c
00000310: fd4f b8bc 1d6f 1d3d d679 0ebd c33e 3cbd
00000320: df65 e2bc c4c8 38bd ee85 cf3b d231 873d
00000330: 72b4 f2b8 d03b f2bc 1228 3ebd 96dc ffbc
00000340: 65aa fe3a 88a6 4e3d 0bc5 4c3d aca3 eb3c
00000350: 58d8 bfbc edfc 423b 53c5 d03c f6d7 0c3c
00000360: e61d 23bd 0aa6 a53c 71f7 793c 93f6 01bb
00000370: 7e00 483d 7a81 5f3d c76a af3c 4ab4 833c
00000380: 83b2 2f3d c0d4 cdbc 26e6 4b3d fb2d 403d
00000390: 2e56 4d3d c657 003d 2281 903b 3036 f0bc
000003a0: ccc0 31bd bd24 e4bc 32e8 723d 248c 323d
000003b0: 24ed 74bc a7a2 053d 57a7 593d 1098 0abd
000003c0: 3644 873d 1548 b93b 1071 663d 5d09 403a
000003d0: 3ced 703d 78b4 29bc 5859 6c3d 343b 513d
000003e0: bf6b edbc a233 c13c a3c5 513c 2aa2 27bc
000003f0: e02c 8f3d 002d 493d c762 e0bc d816 0a3d
0.07574412 0.014589012 0.013522746 -0.022894885 -0.0127353445 0.0483948 0.037645645 -0.03819885
0.033520065 0.037865873 -0.016997501 0.025298096 0.00016875565 0.07697877 0.0117728785 0.017821753
-0.0025109649 0.026207559 0.040865153 -0.023228427 0.032571584 0.030497678 0.04108599 -0.02475728
0.02184606 0.061029736 0.07034669 -0.0153503865 0.045892872 0.03901774 0.0034218016 0.034414772
0.06933496 0.029335849 -0.020978013 -0.016780809 -0.051875923 -0.006783843 -0.03301694 -0.033965472
0.0008151454 0.021439724 0.012070118 -0.051165774 0.008457642 0.06660241 0.05594839 0.010453563
0.028494993 0.014164694 0.04369519 -0.019776206 0.017238356 0.0069966093 0.002155567 -0.02182011
0.029228868 -0.024600849 -0.016224407 0.0621321 -0.01159886 0.04440624 0.028847285 0.051986583
0.034132153 -0.034503672 -0.019560926 0.051713005 0.0087966975 0.003879213 0.013956116 -0.016572723
0.05718611 0.06004394 0.04080809 -0.0048159603 0.07142468 -0.041093297 0.04073936 0.028687812
0.06767863 0.029850103 0.032603074 0.011839889 0.0322957 0.0031821083 -0.027390372 -0.031104319
-0.081677295 0.060022425 0.007550444 -0.012959709 0.04477646 0.029879173 0.06285343 -0.038355242
0.008815736 -0.009157373 -0.05794225 -0.03192601 0.025402745 0.036490683 -0.020902969 -0.048735887
0.012362778 -0.0034448355 0.008923435 0.043254565 0.032614164 0.042899646 0.050348163 -0.0319189
0.028500102 0.01015938 0.027153157 -0.042100728 0.01741697 -0.042352855 -0.05388315 0.033240706
0.025916517 -0.016911274 0.07100703 -0.026866429 0.0516799 -0.010387538 0.018212581 0.033591583
0.060540486 0.0261222 0.044085436 0.014299977 0.06314328 0.035880584 0.013618067 -0.043585442
0.056889456 -0.019853795 0.036755815 -0.026748722 0.016964972 -0.041707296 0.010975853 0.050300416
0.03988594 0.04363922 0.06195309 0.04119482 -0.006332862 0.05832945 -0.04826442 -0.04955926
0.002143464 -0.026460605 -0.013109829 0.0737085 0.07198707 0.04541546 0.03702145 -0.0088667525
-0.027963376 0.02622421 -0.011243218 0.03198183 0.06057521 0.05904275 0.02305598 -0.03195878
0.060851824 0.008676794 -0.036505297 0.026871232 0.045277216 -0.013810955 0.029533532 0.04390213
-0.028733175 -0.05222715 -0.048443913 -0.044859342 -0.037632063 0.020022867 0.008760668 -0.009865298
0.0061361347 -0.04083603 0.014103736 0.015533924 0.012226279 0.051379718 0.04853514 0.070509344
-0.03817402 0.042052977 -0.018963734 0.008490263 -0.022499079 0.038436044 -0.03478416 -0.04595829
-0.027636467 -0.04511334 0.0063331043 0.06601299 -0.0001157307 -0.029569536 -0.046424933 -0.031233113
0.0019429444 0.050451785 0.049992602 0.028764568 -0.02341859 0.0029752806 0.025484717 0.008596411
-0.039823435 0.020220775 0.015256749 -0.0019830808 0.048828594 0.054566838 0.02141322 0.01607718
0.04289485 -0.025125861 0.049780034 0.04691885 0.050131015 0.031333707 0.004409925 -0.029322714
-0.043396756 -0.02784955 0.05930347 0.04359068 -0.014949117 0.03262582 0.053138103 -0.033836424
0.06604807 0.005654345 0.05626017 0.0007325614 0.058819994 -0.0103579685 0.057702392 0.05108185
-0.028982041 0.02358419 0.012803468 -0.010231534 0.06990981 0.04911518 -0.02739085 0.03371319

encoder.2.bias f4 [128]
00000000: fe01 743d 6776 bb3c c7c2 d7bc 2f97 9d3c
00000010: e41c 3ebd 951a 323d e38c c73b 7191 37bc
00000020: 8106 7c3c 9754 7ebd fc98 293c 6d13 22bd
00000030: 1fb4 eb39 5860 45bd 46ed 0fbc 578d 373d
00000040: 5fa4 0e3d b38f 9ebb 16d8 163d eaae 8d3b
00000050: a661 823d 6d62 61bd 696f 40bc 819b 95bd
00000060: ad4b b0bc 2b9f a03c afba 39bd 0439 343d
00000070: 5799 a6bc 1b94 c73c 78ad 14bd 6e6a 86bd
00000080: 451b da3c 449d 373d bece 48bd 7372 5dbd
00000090: c91d 6abd c12f 67bc 8f63 623d 8803 193d
000000a0: 0f1b 2dbd 6e66 3b3c 13fe 9abd ada0 21bc
000000b0: 8a02 2fbd c1bc 92bc f969 6a3c c764 40bd
000000c0: 0272 3a3d 9088 78bd 381f 10bd ab04 793b
000000d0: 66a5 713b df17 b4bc d1d3 dfbc 558d 28bd
000000e0: 1f7e 99bd 2bd1 11bd 6009 8bbd 45f6 243a
000000f0: 7c55 613d 0784 953d da4c a4bc ef8e 0a3d
00000100: 6cbc 873d d450 9abd 1ab4 ecbb 9ad2 233d
00000110: eb2f 463d c52e ae3b f52e 68bd 48d0 f6bc
00000120: c4fa 66bb 1640 0bbc 5a8e 5ebc b0d0 9bbc
00000130: d472 ff3c e5ea 4ebd 5dfc 6e3d d468 0e3b
00000140: 5f2b a0bc 817d 2dbd 7a6a c2bc 4be2 ae3c
00000150: a039 2e3d 791b 1c3d 67e6 3ebd c294 93bc
00000160: 8074 aa3c 1154 813c 64c5 d3bc 6292 563d
00000170: 1c49 1ebc 3bed 4bbd e618 313d a7de f8bc
00000180: 3588 18bd c485 513c ffc4 a1bc 454f 683d
00000190: 6da0 75bd e709 3f3d 10eb 9b3d e31d 473d
000001a0: a0f4 573a a3af e43c 5dfb 8f3d b324 8dbc
000001b0: d60d a33c 9d8d 5ebd 1ec3 8abd e5c8 d6bc
000001c0: baa2 c43c cf7a 503d 589a a43c 1710 0f3d
000001d0: 420e b03b 8bf5 6f3d 5457 983c 7e01 8c3c
000001e0: dce9 1c3d aefc 143d d079 87bd 4be0 ca3c
000001f0: 99bd e83c 7299 3a3b a039 29bc 3454 a3ba
0.059572212 0.022883607 -0.026337994 0.019237129 -0.04641427 0.04348238 0.006089793 -0.0112041095
0.01538241 -0.06209239 0.010351416 -0.039569307 0.00044956894 -0.048187584 -0.008784598 0.044812527
0.034824725 -0.0048389076 0.03682717 0.00432383 0.06366281 -0.055025507 -0.011745312 -0.07305051
-0.02152046 0.019607147 -0.04534405 0.043999687 -0.02033679 0.024362614 -0.036298245 -0.065632686
0.026624331 0.044827715 -0.04902529 -0.054064225 -0.05715731 -0.0141105065 0.055270728 0.037356883
-0.042262133 0.011437995 -0.07567992 -0.009864968 -0.04272703 -0.01791227 0.014307492 -0.04697111
0.045518883 -0.06067711 -0.035186023 0.0037997167 0.0036872267 -0.021984039 -0.027322682 -0.04115041
-0.07494759 -0.03559987 -0.067888975 0.00062928005 0.055013165 0.07300573 -0.020056177 0.03382772
0.066277355 -0.07534948 -0.007223618 0.039995767 0.048385542 0.005315634 -0.056685407 -0.030128613
-0.0035244683 -0.008499166 -0.013583744 -0.019020408 0.031182684 -0.05051698 0.05834614 0.0021729963
-0.019551931 -0.042356018 -0.023732413 0.02134814 0.042535424 0.038112137 -0.046606448 -0.01801527
0.020807505 0.015787156 -0.02585096 0.052385695 -0.009660985 -0.049786787 0.043236636 -0.030379606
-0.037239272 0.01278824 -0.019747255 0.056716222 -0.059967447 0.046640303 0.07613194 0.048612487
0.0008238051 0.027915781 0.070303656 -0.017229414 0.019904058 -0.05433427 -0.06775497 -0.02621884
0.024003375 0.05089837 0.020093128 0.034927454 0.0053727934 0.058583777 0.018596329 0.017090555
0.038308963 0.036373787 -0.06615031 0.024765154 0.02841072 0.0028472808 -0.01032868 -0.0012461008

decoder.0.weight f4 [256, 128]
00000000: 12ce 11bd a22d 6abd 1500 8dbd 34e0 8b3d
00000010: f4a2 a03c 35d9 e83c d78e 1339 679b 83bd
00000020: 0a0d 7abd a450 a33c 1a1c a8bd a752 7a3d
00000030: 2bd8 6dbd 6a32 5a3c 056f a9bc 0f5d 573b
00000040: ac4b d5bb 898b 203c 2355 41bd 5b51 7ebd
00000050: 1f10 4f3d b2d7 c0bc 1da8 993d 5a51 9dbd
00000060: a293 b3bd 860d 73bd 6133 243d 704d 323d
00000070: 2bac 05bc a0ab bbbd 7788 23bd 271c 933d
00000080: 9722 55bc 5e76 303b 3c57 aabd 78c6 a8bd
00000090: 809f a4bb 687c 91bd 7260 1fbd e3b8 3c3d
000000a0: 3bac 25bd ffc7 263d 5ac5 f2bc 62d6 c73c
000000b0: 907e 103d c63a bd3d 638b f9bb 0519 77bd
000000c0: 1c3d 963d f89f 83bd 230f c0bb 6e52 a0bd
000000d0: 1d9e 103d e477 27bb 7144 19bc 3f7d 433b
000000e0: 929c 92bd a234 c13d 8c07 0cbb c38a 94bd
000000f0: 5036 e4ba 2c36 843c 9765 903d 2ab6 b9bc
00000100: e69d 863d 9e75 85bd 82c8 ca39 4f95 b5bd
00000110: 440d c8bc 5150 bcbc 5f54 9fbc d535 7c3d
00000120: 9f7a 3a3c e113 5b3b efc3 12bd 5db0 23bd
00000130: 27fd 8cbd 204a af3c 8963 813c 61d4 61bd
00000140: 8ecc 9bbd 3a8f 2cba 497b a9bd 23f1 693d
00000150: 837f 98bd cfb0 463d b983 c0bb 8393 23bd
00000160: 7652 6dbc 933c 11bc 504d b43d fa35 dc3c
00000170: 82bf f2bc d446 89bd aff5 243d 4a98 843d
00000180: ff38 b23d 1387 063d 6a94 7cbd fa60 f0bc
00000190: 225e adbd 8988 963d c1eb a03d 9ea7 8abb
000001a0: c568 ae3d a803 ef3c 6e21 6fbd a0a0 a6bd
000001b0: 031a c23c 41a9 83bc 09ec 61bc c59a 8bbd
000001c0: 5faa 3abd 8310 1e3d 413a debc 6b97 e53c
000001d0: ad2f 3bbd 4690 99bd c91c d23c 7f51 15bd
000001e0: 2762 aa3d b6ce 81bd 2ec3 a23d 71d0 a23d
000001f0: f4ab 8abd 8be4 243b 677a b8bd a25b 843d
00000200: a0d7 3d3d 4dcc 8a3d 78a3 393d bcc3 493d
00000210: d341 b63d 4b8d c1bd d8e1 adbd e202 8cbd
00000220: 45b8 e63b 1920 8e3d 0a00 05bd 7ca6 7fbd
00000230: 4fc7 fc3c 4e4d d93d fa29 34bd 563c 0abd
00000240: 2aed 883d 51a9 d23a 7b89 8f3d 2b7c 8ebd
00000250: 635d c23d b406 2f3d 2492 86bc 7c81 8d3c
00000260: 5c5c a43d a52b e2bc 33a0 aa3c 108b 1fbd
00000270: 203e 2b3d e850 92bd e509 25bc ccf1 51bc
00000280: 3ac3 693d c79c 1abd 1796 abbd f991 173b
00000290: ef0c 50bd c1d0 56bd bb91 ef3c 8c7f 89bd
000002a0: 6af4 30bd d587 263d 5212 22bd 4637 c9bc
000002b0: c1c9 213d 9009 49bd 98b2 2bbd e5ee 6fbd
000002c0: 987e c33b a881 9cbc da16 583c 1137 a73d
000002d0: 9ca3 903d 6665 5a3d e76e c73d ccaa f7bb
000002e0: 0bcd 913b 1a8a 22bd c5c2 a6bd 748c 6ebd
000002f0: 855f c63d 39d4 10bd 40d6 3ebd ea9f 93bd
00000300: 194f 09bd 6dd4 8ebd 760d 093d 8c89 d1bd
00000310: 0ad9 823b df4e 673d 4c85 9b3d 688b adbd
00000320: 9e10 b8bc 7e4b d3bc a1ee 7bbd c7ed d2bc
00000330: d029 18bd da4b 94bc 626d ba3c 27c4 9fbd
00000340: 5eb6 b93c 4d8c 4ebd 2196 0b3d 1914 30bb
00000350: 7e4f 0abd 5c15 83bd b59f 223d 1bc4 ac3d
00000360: aec3 75bd 14a5 87bd 94c6 dabb 2d17 b2bc
00000370: f9e8 483d a52c 883d 5f74 27bc 5de4 96bd
00000380: 40ea be3c fbe8 7c3c 3e82 a0bd 7350 a83d
00000390: 883f 1f3c 53de 243d 8f55 033d 5be8 81bc
000003a0: a01c 5abd 5583 e33b 46e6 86bd bb57 693d
000003b0: cf22 513d d874 2bbc c536 163b 6b55 15bd
000003c0: ba08 83bd cfd8 cf3d c9f8 ddbc 3374 9c3d
000003d0: 7986 c4bd 7c97 73bd a000 9c3c 4136 f1bc
000003e0: 4009 8cbd baf2 673c 769f 9bbd b920 b73d
000003f0: 3285 66bc 21ee 6c3d 84ae 61bc c9dc a93d
-0.035596915 -0.057172425 -0.06884781 0.06829873 0.019608952 0.028423885 0.00014072224 -0.06426125
-0.06104759 0.019935913 -0.08208485 0.06111398 -0.058067482 0.013317684 -0.020682821 0.0032861864
-0.006509265 0.009798893 -0.047200333 -0.062089305 0.050552484 -0.023540352 0.07502768 -0.07681532
-0.08768393 -0.05933907 0.04008806 0.04353088 -0.008158724 -0.09163594 -0.039925065 0.07183104
-0.013008735 0.002692602 -0.0831742 -0.0824098 -0.0050238967 -0.07103807 -0.038910337 0.04607476
-0.040447455 0.040718075 -0.02963512 0.024394218 0.03527695 0.09239726 -0.007615493 -0.060326595
0.073358744 -0.06426996 -0.0058611794 -0.07828222 0.03530704 -0.0025553638 -0.009354697 0.002982929
-0.0715877 0.09433867 -0.0021366803 -0.07253029 -0.0017411206 0.016139112 0.07050627 -0.02266987
0.065730855 -0.06516574 0.00038677832 -0.08866369 -0.024420388 -0.022987517 -0.019449411 0.061574776
0.011381774 0.0033428597 -0.035831388 -0.039963115 -0.068842225 0.02139765 0.015794532 -0.05513418
-0.07607375 -0.0006582622 -0.08275468 0.05711473 -0.07446196 0.04850846 -0.0058750776 -0.0399356
-0.014484992 -0.00886454 0.08803809 0.026881207 -0.029632334 -0.067029625 0.040273365 0.06474359
0.087022774 0.03284366 -0.061664976 -0.029343117 -0.0846522 0.07350261 0.078574665 -0.0042314073
0.08516077 0.029176548 -0.05838149 -0.081361055 0.023694044 -0.016071917 -0.013789185 -0.06816629
-0.045572635 0.038589966 -0.027127387 0.028026303 -0.045699764 -0.07498221 0.025648491 -0.036454674
0.08319502 -0.06338255 0.07947384 0.07949913 -0.06771079 0.0025160636 -0.090077214 0.0646279
0.046348214 0.067772485 0.04532191 0.049258932 0.08899274 -0.094507776 -0.08490342 -0.06836487
0.0070410096 0.06939716 -0.03247074 -0.06241463 0.030856756 0.10610448 -0.043985344 -0.033748947
0.066858605 0.0016072189 0.07008644 -0.06957277 0.09490468 0.042731002 -0.016427107 0.017273657
0.08025429 -0.027608702 0.020828342 -0.03895098 0.041807294 -0.07144338 -0.01007316 -0.0128139965
0.05707095 -0.03774717 -0.08378237 0.0023127778 -0.050793584 -0.052445177 0.029244294 -0.06713781
-0.04320184 0.040656883 -0.039568253 -0.02456249 0.03949905 -0.049081385 -0.041918367 -0.058577437
0.005966019 -0.019104794 0.013189042 0.081648 0.07062456 0.053319357 0.0973795 -0.0075582024
0.004449492 -0.039682485 -0.08142618 -0.058239415 0.09686188 -0.03535864 -0.046591043 -0.072082356
-0.0335227 -0.06974111 0.033460103 -0.10231313 0.003993158 0.0564717 0.07593784 -0.08473855
-0.022468861 -0.025792833 -0.06150687 -0.025748147 -0.03714925 -0.018102575 0.022757236 -0.07801085
0.022669967 -0.05042677 0.03407872 -0.0026867448 -0.033767216 -0.06400558 0.03970309 0.08435842
-0.060001068 -0.06623283 -0.0066765044 -0.021739567 0.049050305 0.0664914 -0.010220616 -0.073677756
0.023305058 0.015436406 -0.07837342 0.082184695 0.009719737 0.040251087 0.032064017 -0.015857866
-0.053249955 0.006943146 -0.0658689 0.056968432 0.051058587 -0.010464869 0.0022920829 -0.036458414
-0.06398149 0.10148775 -0.02709617 0.07639351 -0.09595961 -0.05947064 0.019043267 -0.029444816
-0.06837702 0.014156992 -0.07598774 0.08941788 -0.014069842 0.057844285 -0.013774518 0.082940646

decoder.0.bias f4 [256]
00000000: 1e9f f6ba ed7c 8bbc a50c 7f3d 9a20 afbc
00000010: b399 abbd ecae a5bd bbbc 9cbc ab15 7a3d
00000020: 2814 9c3d d409 16bd 54aa 50bd 206b d73d
00000030: b1fd 1dbc 1a15 b1bd 9113 e6bc 2e13 63bd
00000040: c48e 01bb 72f5 3dbc fb4e a23d 99ea 9fbb
00000050: 4e4d 95bc 1a8a 8ebd 285d 77bb 13da e8bb
00000060: c65b 82bd 906f 0a3b 0980 62bc fd21 44bd
00000070: 2489 82bc dfdb 7f3d 4f7d d93c e386 bebc
00000080: 1e4d 9ebd 2f7c 283d 9867 bbbd 2ea7 9cbd
00000090: 13f9 b4bc 10a8 553d baa7 d5bc 52c4 82bd
000000a0: 2611 a6bd e611 0dbd 4b9f 39bd eaf3 f73b
000000b0: feb7 ce3d 06c4 643d e669 87bd 86c4 563d
000000c0: 6113 2fbd e114 38bc 0906 8e3d dbc8 97bd
000000d0: a622 95bd 62c3 993d 5f4e 693d 5f7c 6ebd
000000e0: 25d7 d8bc 4c9d 57bb 0aa4 83bd da30 763d
000000f0: e13a bb3a c78f cc3d 0e0e 3e3c e199 a03d
00000100: a620 a8bc 5112 e43c 3a59 323c 6356 a03d
00000110: 9253 4a3d 0d9c 97bd 931e 98bd a907 3d3d
00000120: ed90 97bd 428c 82bd 19b7 51bd e6ae 5bbd
00000130: 0ca2 2cbd 16e8 25bc b0de 923c 92b5 4a3b
00000140: 0357 873b edb9 393d 7c65 2f3d 42e9 0c3c
00000150: a4a1 8cbd 35da 283d 8364 8a3d 9e23 743d
00000160: 5b01 84bd f085 a13d e755 a23c 1877 083c
00000170: 8d38 0cbd 812d c43d cbf8 f5b9 9207 75bd
00000180: 2cc4 fc3b 237b 933d 0dca 7b3d 93d8 713d
00000190: cba6 bfbb 26c8 9dbd d753 7abd b0a9 0e3d
000001a0: 4e60 303b c698 a73d 59f3 cd3d 746c 65bd
000001b0: 3eaa 283d 9072 06bd 2efc 6fbd d144 963b
000001c0: aee6 b03d 46f2 983c 248c 86bd eca4 313d
000001d0: 75fd 103d 1d84 f83c bc33 86bd a959 be3c
000001e0: 9797 93bd bccd 673d d823 623c c31a 133d
000001f0: 218e b53c 3adb a4bb e591 9cbd 54f7 96bd
00000200: 456e 873d cf2b 833d d84e 8bbc f803 7e3d
00000210: 577d b3bb 8443 7bbc d9b8 bf3c 43be c7bc
00000220: 6f88 c93c 063c 9abd b796 513d 3945 49bd
00000230: 609d be3d 205b a7bd ab11 0c3c b776 ff3c
00000240: ab10 8e3d c6f1 09bd a600 813d e24a 63bd
00000250: c600 d23c 5612 8cbc 031d a43d d0c3 053d
00000260: 47fc 493d 5c9b a4bc d386 943d 2f3c a6bd
00000270: 3c16 11bc 27e4 a4ba 2ed2 043d f894 aa3d
00000280: 8faf b4bd 69c8 3a3d fbb1 933d a91d 85bc
00000290: 1f95 81bd 6768 013d d9e4 823d bfdb 0f3c
000002a0: b338 85bd 7e78 acbc 3a23 d8bc 135f 9d3d
000002b0: 41ca 2f3c b2de 15bd aba6 4bbd 0b63 acbd
000002c0: d735 5c3d eb9a 263d 7e98 1abb 2016 943d
000002d0: 9ab0 e5bc a6a6 94bd 33bb 863d 3055 853d
000002e0: c517 cd3c c6a8 5ebd 5592 28bd 2446 983d
000002f0: 96cc 993d 1e6d fdbc 023e 143d 5234 a03d
00000300: ac2b 893d a832 c43d 353f 19bb f541 9dbc
00000310: 83d3 46bd 08f6 6f3d 4635 863d a441 a83d
00000320: a223 a9bc da4f ec3c ba57 a13c e0a2 babd
00000330: 97ca 1fbc 9de9 21bc e5aa 02bd 5fd6 00bd
00000340: d6ae 6f3d f546 9b3d dad0 d33d 81b8 85bd
00000350: 8840 30bd fb65 78bd 03bd 69bd 91e2 18bd
00000360: 3540 43bd 45f5 15bd 26ee 883d 7860 d13c
00000370: 6290 413d a27c d83d ac8f dbbc 6ffd 43bd
00000380: bcd8 a7bc 7710 cfbc 60a2 c138 28a7 41bd
00000390: 30af 86bd 7cfc b03b fe00 33bd c49c 823d
000003a0: 43b9 a8bc 3f0f 883c 111a 71bc 65d3 ae3d
000003b0: ddf8 cd3c f0be ca3c c693 c5bd 1c01 1a3d
000003c0: f1f3 ab3d 86f5 c3bd 5d29 2a3d dbb9 f93c
000003d0: ff1a b03d b745 103d a605 82bd 5e83 093d
000003e0: 6d05 223d 3b5f 3cba 2067 9cbc 00ef b5bb
000003f0: 1634 3abd eeef ca3d 5722 c1bc 3ece a9bb
-0.0018815731 -0.017027343 0.06226792 -0.02137785 -0.08378925 -0.08090004 -0.019132962 0.06105582
0.07621032 -0.036630467 -0.050943688 0.10518479 -0.009643004 -0.08646603 -0.028085502 -0.055438213
-0.0019768933 -0.011594163 0.079252206 -0.004880261 -0.018225338 -0.069599345 -0.0037744734 -0.0071060746
-0.06365161 0.0021123625 -0.013824471 -0.047883976 -0.015934534 0.062465545 0.02654901 -0.023257678
-0.07729553 0.041134056 -0.09150618 -0.076490745 -0.022091424 0.05216223 -0.026080955 -0.063851014
-0.081087396 -0.034440897 -0.04531793 0.0075669186 0.100936875 0.055851005 -0.066119954 0.052433513
-0.04274309 -0.011235447 0.06934745 -0.07411357 -0.07281999 0.075079694 0.056959506 -0.05822408
-0.026469776 -0.0032900153 -0.06427772 0.060105182 0.0014284515 0.09988361 0.011600031 0.0784185
-0.02052338 0.027840765 0.010885531 0.07828977 0.049396105 -0.07402811 -0.074277066 0.046149883
-0.07400689 -0.06374408 -0.051200006 -0.053633593 -0.042146727 -0.010126134 0.017928451 0.0030930978
0.0041302457 0.04534333 0.042821392 0.008600535 -0.06866768 0.041223723 0.06757452 0.05960428
-0.06445571 0.07886875 0.019816352 0.008329175 -0.03423362 0.09578992 -0.00046915407 -0.059821673
0.007713815 0.07201221 0.061471988 0.059044432 -0.0058487407 -0.07704191 -0.061115112 0.034829795
0.002691287 0.08183436 0.100561805 -0.056011632 0.04117798 -0.0328241 -0.058590107 0.0045858403
0.08637749 0.018670212 -0.065696985 0.043370172 0.035397965 0.030336434 -0.06552836 0.023236113
-0.07206648 0.056592688 0.013802491 0.035914194 0.022162499 -0.0050310167 -0.07645015 -0.07371393
0.06612829 0.0640484 -0.017005369 0.062015504 -0.005477588 -0.015335921 0.023403572 -0.024382716
0.02460119 -0.0753098 0.051169124 -0.04913828 0.09307361 -0.081716776 0.008549134 0.031184537
0.06936773 -0.03367784 0.06298952 -0.055491336 0.025635134 -0.017098587 0.08013346 0.032657444
0.049312856 -0.020093612 0.07252278 -0.08116948 -0.008855399 -0.0012580202 0.032427005 0.08329195
-0.08822548 0.045601282 0.072116815 -0.016249495 -0.06327271 0.031593706 0.063913055 0.008780419
-0.06504955 -0.021053549 -0.026383985 0.076841496 0.010729373 -0.036589332 -0.049719494 -0.084173284
0.053762283 0.040675085 -0.0023589428 0.072307825 -0.028038312 -0.07258348 0.06578674 0.06510389
0.025035748 -0.054360174 -0.041155178 0.07435253 0.07509725 -0.03093582 0.036191948 0.07822479
0.06697783 0.095799744 -0.0023383622 -0.01919649 -0.048541557 0.058584243 0.0655313 0.08215645
-0.020646874 0.02884667 0.019695152 -0.09113097 -0.009752891 -0.009882358 -0.03190126 -0.03145444
0.058516346 0.07581893 0.1034257 -0.06529332 -0.04303029 -0.06064413 -0.05706502 -0.037325446
-0.047668654 -0.03661086 0.06686048 0.025558695 0.047256835 0.10570647 -0.026801907 -0.047849115
-0.02048909 -0.025276406 9.233202e-05 -0.047278553 -0.06576383 0.0054011922 -0.043702118 0.06377557
-0.020596152 0.016608832 -0.014715687 0.08536414 0.025143081 0.02474925 -0.09647326 0.037598714
0.083961375 -0.09568314 0.041543353 0.03048413 0.08598899 0.035222735 -0.063487336 0.033572547
0.039555956 -0.00071858213 -0.019092143 -0.0055521727 -0.04545983 0.09909044 -0.023575945 -0.0051820567

decoder.2.weight f4 [47, 256]
00000000: 2453 6fbd a8c4 093c 8a66 caba 0c35 613d
00000010: 1837 223c c050 5f3b e070 c83b 3b26 32bd
00000020: 19e0 863b b261 93bd a5ad 573d 54a1 1f3d
00000030: 6b92 44bc 833f 03bd d7cf 7e3c f1a2 2d3d
00000040: 389d 88bd ae00 12bd 61fe 01bd 7a95 f5bc
00000050: 6e4a d1ba 1150 8c3d 76b2 be3c 1485 41bd
00000060: 8d24 613d cbe1 51bd 0844 b83c 447d 09bb
00000070: 3bda 7b3c 7f5c f3bc 40e7 723d 6c72 1d3d
00000080: 249c 2b3d 8582 013d 531b 883c c86c ea3c
00000090: 93f1 41bc 534e 58bd caed 243d d310 dcbc
000000a0: f8fa 45bc a048 2abd 744d 80bc ad10 8abc
000000b0: 22a2 363d 915c a8bc 34de 72bd b535 97bc
000000c0: f6d7 c43c cbd1 32bd c624 58bb beba 4f3d
000000d0: 1ab9 343d 06c8 cc3c aac3 663d b252 5fbd
000000e0: 9f15 33bd 50d2 bcbc 9b52 c83b fbe9 03bd
000000f0: 14b9 7bbd 2803 9abc 37e4 f4bc 4349 1b3d
00000100: 2649 10bb a2d7 57bc 6334 923c bb60 f7bc
00000110: 5bbf 573d a419 5fbd b44b 713d 53ad 92bd
00000120: d807 eebc 38ce 3c3c 8cbe 79bc e270 2cbd
00000130: 76a7 b0bc 7979 593d 739a 883c 1c84 0dbd
00000140: a024 b2bb e0e6 1fbd 630d a53c 7939 a0bc
00000150: 4a7d 253d 3596 70bd 889f 03bc 88e4 203d
00000160: 388a 3a3d b133 44bd aadd 1e3d 79a8 74bd
00000170: ecb1 e83c 454a c13b dfd9 09bd 13dc 063d
00000180: 0e8b 28bd 8b61 173d 4bb8 cb3b 4aff b3bb
00000190: 5e37 283d 68b5 c2bc ae4a 513d 02aa 5dbd
000001a0: 1890 95bc d2c0 183c 7c84 e9bc 244e 783d
000001b0: 57f6 30bd 9186 57bc adf6 813c de93 2a3d
000001c0: 9190 2cbd 641e 563c 7860 01bc 90e7 86bb
000001d0: 5b86 703c bff4 873b e0fe 1d3d bc49 673d
000001e0: 6f07 b2bc 6d5f 19bd cb74 0abd b050 7c3d
000001f0: 4036 d6bb 4621 2f3d 099f e6bc ad8a 1fbc
00000200: a1bd 073c 9786 39bd 1da5 003d 0636 0cbc
00000210: f294 1f3d 68ff 193d 913c d1bb b541 3e3c
00000220: 08e2 cc3c f83c 643c 5c2f 263d 6094 b33c
00000230: fd3d 573d 44d8 f2bc 19d4 223c aad0 0dbd
00000240: 2238 22bd c06f 083c 9232 6e3d e83a 7cbd
00000250: cc95 a8bc 80a1 343c 99df b9bc b7d0 663d
00000260: 3eb7 863c e3ac abbb 9a35 ad3b 2ede 61bd
00000270: 1b80 2b3d c88d 353d e52d 643c ca31 79bd
00000280: 1f3b f53b e33e 44bd 4c03 b9ba 6d55 2c3d
00000290: 89f6 bb3c 232c 583d 1871 62bc aba4 6c3d
000002a0: 0c95 7e3d b88d 253d 184a 6dbd e8ae bbbb
000002b0: a013 36bd d744 123b 4b46 d8bb 38a6 093c
000002c0: 8179 c23c c5de 49bb 3e7a 20bc 4223 423d
000002d0: e978 a93b 960b 263d 2062 64bd 84ed 3c3c
000002e0: 6ecb 4abd 1eee 4abd 97ea 623d adc0 81bd
000002f0: 3a99 4e3d 5a19 a93c ca75 343d 3f93 e2bc
00000300: 6c9c 8d3b 7cc8 d1b7 15bb 4abd 944a 02bd
00000310: 84b3 f83c 978d b93c 0eb7 1b3d 161e 2a3c
00000320: 3792 883c 3975 453c adb6 70bc 480b 603d
00000330: 5e6b 1abc 7358 e8bb e85e eabc efc9 64bd
00000340: 5019 61ba 4c70 5e3d ad80 69bd c071 443c
00000350: b103 403d 9fdb 203d 9e43 31bd e5e3 ce3c
00000360: 5c4c ae3c a609 313d 7b3c 51bd 977e 80bd
00000370: 2682 053d 62d5 4e3d 59d9 7dbd dc4c 66bd
00000380: e0fa 59bd bc16 1f3d 08ca 05bd 16ce 7e3d
00000390: c41e 203d c01f 14bd 3c72 febc 2ff9 173d
000003a0: 7c81 ac3c ea3f 443c 5a12 1e3d f6a8 9dbb
000003b0: 75d3 55bb 52bf 293d b8e9 253d b99c 3f3d
000003c0: 38ec 3d3d 7752 3bbc 8680 103c 8250 373d
000003d0: 0ef2 873c ece4 82bb 949a 96bc b8a0 8c3c
000003e0: 2ac2 983d ce4b 46bd 78c8 653c 93f6 ba3c
000003f0: 2a2c 14bc 58a5 a03a 8114 06bd 4c4b 08bd
-0.0584289 0.008408703 -0.0015441936 0.05498223 0.009900831 0.003407523 0.0061169714 -0.04349349
0.00411607 -0.07196368 0.052655835 0.038972214 -0.011997799 -0.03204299 0.015552483 0.04239172
-0.06670612 -0.03564518 -0.031736735 -0.029978503 -0.0015967616 0.06851209 0.023278456 -0.047246054
0.0549665 -0.051240724 0.022493377 -0.0020979205 0.015371854 -0.029707192 0.05930257 0.0384392
0.041896954 0.031618614 0.016614592 0.028616324 -0.011837381 -0.05280907 0.040265836 -0.026863491
-0.012083761 -0.041573167 -0.015661933 -0.016853655 0.044588216 -0.020551952 -0.05929394 -0.018458227
0.02402876 -0.043657105 -0.0032980903 0.0507152 0.04412184 0.024997722 0.056338944 -0.054522224
-0.04372179 -0.023049504 0.006113363 -0.032205563 -0.0614558 -0.018800333 -0.029893978 0.037911665
-0.0022016256 -0.013173969 0.017847246 -0.030197492 0.052672725 -0.054467812 0.058910087 -0.07161965
-0.029056475 0.011523776 -0.015243184 -0.04209984 -0.021564227 0.05309436 0.01667521 -0.034549817
-0.005436495 -0.03903854 0.020147985 -0.019558655 0.040402688 -0.058737 -0.008033641 0.039280444
0.045541972 -0.04790086 0.038785614 -0.05973098 0.028405152 0.005898746 -0.033655044 0.032924723
-0.041148238 0.03695826 0.006217038 -0.0054930793 0.041068427 -0.023768142 0.05109661 -0.05411721
-0.018257186 0.009323316 -0.028505556 0.060621396 -0.043203678 -0.013154642 0.015864694 0.041644923
-0.042130057 0.013068769 -0.007896535 -0.00411696 0.01468047 0.004149049 0.038573146 0.056466803
-0.02173206 -0.03744452 -0.03380279 0.061600387 -0.006537229 0.04275634 -0.028152006 -0.009737653
0.008284957 -0.04529437 0.031407464 -0.008557802 0.038960405 0.03759709 -0.006385394 0.011612345
0.025010124 0.013930552 0.04057251 0.021921337 0.05254935 -0.02964414 0.009938263 -0.034622826
-0.039604314 0.0083274245 0.058153696 -0.061579615 -0.020579241 0.011024833 -0.022689627 0.05635139
0.016444799 -0.0052391156 0.005285931 -0.055143528 0.041870218 0.044324666 0.013926958 -0.0608385
0.0074838544 -0.047911536 -0.0014115362 0.042073656 0.022944706 0.052776467 -0.013820909 0.057774227
0.06215386 0.040418357 -0.05793199 -0.0057276376 -0.04445231 0.0022318864 -0.0066001764 0.008401446
0.023739578 -0.0030802947 -0.00979477 0.047396906 0.0051718843 0.040538393 -0.05575764 0.0115312375
-0.049510412 -0.049543492 0.055399504 -0.06335578 0.050439097 0.020641971 0.044057645 -0.027658103
0.0043216255 -2.50081e-05 -0.04949482 -0.031809404 0.030359037 0.022650523 0.03801637 0.01038315
0.016671283 0.012051874 -0.014691991 0.05469826 -0.009425012 -0.007090622 -0.028609708 -0.05585664
-0.00085868407 0.054306313 -0.05700748 0.011990011 0.04687852 0.039271947 -0.043277375 0.025255153
0.021276645 0.043222092 -0.05108307 -0.06274145 0.032594822 0.050496466 -0.061974857 -0.056225643
-0.05321777 0.03884004 -0.032663375 0.062208258 0.03909184 -0.03616309 -0.03106033 0.037102874
0.021057837 0.011978129 0.03859172 -0.0048114015 -0.003262726 0.041442223 0.040506095 0.04678032
0.046367854 -0.011433235 0.008819705 0.044754513 0.016594913 -0.003994575 -0.018384255 0.01716648
0.07458909 -0.048412137 0.014024846 0.022822654 -0.009043733 0.0012256308 -0.032734398 -0.033274934

decoder.2.bias f4 [47]
00000000: 8d87 22bd 8b51 debb 3058 2abd 7215 c73c
00000010: 931a 9339 4420 eb3c d9bb fc3c 7e29 a2bd
00000020: 1946 323d 9dec 833d 43aa 9fbd fe77 873c
00000030: 1fb8 843d a51f 483d 470d a0bc b37d 8ebd
00000040: d7d6 843c 3978 db3b 0160 523a 49c9 473d
00000050: 1d7e 2c3d b3e5 d3bc 1311 9ebc db85 0a3c
00000060: af69 773d 06bd 143d 42aa ef3b 5cd5 153d
00000070: f4b3 3e3d 60fe b2bc 9700 0d3d 1fef b03c
00000080: a34a 06bd ecc6 51bd 7432 6bbd 741e 333c
00000090: c98d 44bd 72c4 e1bc 41f4 81bd d417 883d
000000a0: 9d9d ff3c 1326 a03b fbce 8cbc 21c7 8abd
000000b0: 3b11 3d3b 759f 6cbd 307c 85bd
-0.039680053 -0.006784623 -0.04158801 0.024302218 0.00028057824 0.028701909 0.030851291 -0.0791807
0.04352388 0.06441615 -0.07796147 0.016536709 0.06480431 0.048858304 -0.019537581 -0.06957569
0.016215725 0.0066976813 0.000802517 0.048775945 0.04211246 -0.025866365 -0.019295251 0.008454765
0.060403522 0.03631308 0.0073139975 0.03658043 0.046558335 -0.021849811 0.03442439 0.021598397
-0.032786023 -0.051215097 -0.057421163 0.010932554 -0.04798678 -0.027559493 -0.06345416 0.0664517
0.031203086 0.0048873513 -0.01718854 -0.06776262 0.0028849381 -0.057769258 -0.065178275
