recipe_model_data.pth (torch, 783160 bytes, 8 tensors)

encoder.0.weight f4 [256, 229]
000000 80 75 cd 3b 6d 09 45 bd 23 44 54 3d 1f 01 cd bc
       0.0062701106 -0.048104692 0.051822793 -0.025024949
000010 14 cb a7 3b 2b bb 98 bb cf e9 2e b9 de 23 56 bb
       0.0051206443 -0.004660984 -0.00016681034 -0.0032675187
000020 f7 be 19 bc 2d e7 04 3c 6b 7d 59 bd 69 09 22 bd
       -0.0093839085 0.008111757 -0.053098124 -0.039559755
000030 93 32 ae bd a6 1b 81 3d 61 13 b8 bb a8 2d 0a 3d
       -0.0850574 0.06304102 -0.0056175445 0.033734947
000040 81 3b ce 39 c8 2c 10 bd 66 b0 d4 bc f6 53 a9 3c
       0.00039335716 -0.035198957 -0.02596302 0.020669919
000050 d2 0b 01 3d 34 9d 1e bd 39 99 29 3d 81 46 38 bd
       0.031505413 -0.03872414 0.04140589 -0.044989113
000060 8a 2f fd bc b7 42 b6 3c 45 ee 8f bc f2 6b 8d 3d
       -0.030906457 0.022248609 -0.01756967 0.069053546
000070 74 2b 80 bd 0a 54 48 bc 65 b5 5e bc 5d db 4e bd
       -0.06258288 -0.012227068 -0.0135930525 -0.05050217
000080 3a 97 0f bc 39 27 03 3d d0 19 97 bd 38 f2 d9 3c
       -0.008764083 0.032019828 -0.0737797 0.026604757
000090 58 be 82 3c ff 5e 9f bc aa 2d 21 3d f4 b3 9c bc
       0.015959904 -0.019454477 0.03935019 -0.019128777
0000a0 a6 75 0d bd 79 b0 39 3d 90 0c 21 3d 1d f9 88 3d
       -0.034536026 0.045334313 0.03931862 0.066881396
0000b0 99 b6 21 bd 42 ed 25 ba ac 67 e7 3c 4c 92 1d bd
       -0.03948078 -0.00063296047 0.028247677 -0.038469598
0000c0 ee 66 2c bd 40 f5 90 3d 2d e7 6c 3d fc 5d bb bc
       -0.04209035 0.07078028 0.057837654 -0.022871964
0000d0 06 19 9c bc 31 03 9a bd 44 c1 f9 bb 86 51 c9 bb
       -0.0190549 -0.0752014 -0.007621916 -0.0061437516
0000e0 bc cb ea 3b 07 98 34 bd c9 fb 14 bd cb a1 4c bd
       0.0071654003 -0.044090297 -0.036372934 -0.049958985
0000f0 d2 e0 a6 3b 9d 5b 87 bd d0 50 05 3d 63 be 4c bd
       0.0050927186 -0.06609271 0.032547772 -0.049986254
000100 61 28 04 bd 77 f6 96 bd 90 9c 62 bd 76 ff 36 3d
       -0.03226507 -0.07371228 -0.05532509 0.04467722
000110 b0 01 46 3d c3 d3 0b 3d bb 0c 1e 3d e0 33 31 bb
       0.048341453 0.0341375 0.03858636 -0.0027038977
000120 6f 1e 93 3d f7 2e 51 3d 66 e8 e8 bb 3e 41 26 bd
       0.07183539 0.05107018 -0.007107782 -0.040589564
000130 3c 78 42 3d 51 a3 41 bd 3f 85 1d bd 17 5b 90 3b
       0.047477946 -0.04727489 -0.03845715 0.00440539
000140 6e 14 63 3d 46 a1 bc bb 84 67 2c 3d a3 78 8d 3c
       0.055439405 -0.00575653 0.042090908 0.017269438
000150 ea f5 54 3b 8e 98 e1 bc 4c 2f 21 3b 8b ed 46 bc
       0.003249521 -0.027538564 0.0024594842 -0.012141596
000160 15 50 52 bc 75 a8 4c 3d 88 c3 27 bd 56 a2 03 3c
       -0.012836476 0.04996534 -0.040957958 0.008034309
000170 88 18 b9 3c 99 02 8b bd 4d 6d a0 ba 5f 2b 69 3d
       0.022594705 -0.06787605 -0.0012239605 0.056926128
000180 8d e4 38 bd 18 0e 4a 3d 32 a9 71 3c a6 a8 ab bb
       -0.045139838 0.049329847 0.014749812 -0.0052386103
000190 b8 dd 41 bd 35 cf bb bc d8 53 ed 3c d1 16 1d bd
       -0.047330588 -0.022925952 0.028970644 -0.038351838
0001a0 c9 26 cf bc 1f ac 02 3c d1 f8 0d bc 42 59 6c bc
       -0.025287049 0.007975607 -0.0086652795 -0.014425578
0001b0 f2 1d e8 bb 88 b4 04 bd f3 86 55 3d 1e cd bd bc
       -0.007083648 -0.03239873 0.05213065 -0.023169097
0001c0 5d 38 c8 3c 6a fd 18 bd a9 3b 3a bd dc 6b fe bb
       0.024440939 -0.03735105 -0.045467053 -0.0077643227
0001d0 bb 3d 76 bc 23 30 22 3d 93 d1 a5 bd aa f8 91 3d
       -0.015029366 0.039596688 -0.08096614 0.07127507
0001e0 35 0e 5f 3d 94 f4 44 bd 0c 4f 82 3c 66 a4 05 bd
       0.05445691 -0.04808481 0.015906833 -0.032627486
0001f0 95 5c fd bc 40 60 e2 bc b4 5a a6 bd dd 30 4a bd
       -0.030927936 -0.027633786 -0.08122769 -0.049363006
000200 1d ee 0f bc 93 f5 9e bd 2c 63 e4 bc fd fc ae 3c
       -0.008784798 -0.07761683 -0.02787932 0.021360869
000210 87 90 b3 3c 20 2d 57 bd 82 b6 1b bd 8c 19 13 3c
       0.021919502 -0.05253327 -0.03801585 0.008978259
000220 ed bd 5e 3c ed d4 b6 3c b3 cf 85 bd 19 4b 08 3b
       0.0135950865 0.022318328 -0.06533756 0.0020796715
000230 37 f2 90 3a c1 37 79 bd 11 5b f1 bc cc a8 97 bd
       0.0011058514 -0.060844187 -0.02946237 -0.07405242
000240 fd 24 4a bd 0b 74 8c 3c be 67 52 bd af 30 81 bd
       -0.04935168 0.017145177 -0.051368468 -0.06308114
000250 44 04 ac 3d 79 41 44 ba ca ad 88 bd 8f e8 07 bd
       0.08399251 -0.0007486563 -0.06673773 -0.03318077
000260 d3 1c 81 bb c9 c8 c8 bc 85 ef 46 bd f7 6c b7 3b
       -0.0039402037 -0.024509804 -0.048568267 0.0055977064
000270 22 ed 3e 3d 72 2d 27 3d e3 07 25 bd a8 c4 8c 3d
       0.046612866 0.040814824 -0.040290724 0.06873447
000280 08 d1 2d bd 89 6c 1f 3d fe 3c 69 3d 98 9d 2a bd
       -0.042435676 0.038921867 0.056942932 -0.0416542
000290 a2 69 4b bd e9 8a 81 bd 9b 3f 11 3d 8d f8 2b 3d
       -0.049661286 -0.06325323 0.03546105 0.041985083
0002a0 8b b3 57 bd 7f 75 be bc ac 06 1b bd f9 86 0a 3c
       -0.05266146 -0.023249386 -0.03784816 0.008455032
0002b0 67 6c d6 b8 83 30 7b bd 4b 83 03 bc fa e2 99 bc
       -0.00010224507 -0.06132556 -0.008026908 -0.018784989
0002c0 a5 f8 87 bb 99 f9 3c 3c a6 ab 4d bc 06 7c 07 3c
       -0.004149514 0.011534118 -0.012553131 0.008269316
0002d0 ad ad e4 bb 21 5b 16 bd c3 27 26 bd d3 3d 40 3b
       -0.0069787116 -0.036708 -0.040565263 0.0029333725
0002e0 d9 97 25 bb db 15 e5 3c bf ee 63 3d 7f 34 3b 3c
       -0.002526751 0.027964523 0.055647608 0.01142609
0002f0 d6 b6 2b 3d fb 0b 07 bd 54 7b 65 bd c6 34 00 3c
       0.041922413 -0.03297041 -0.056025818 0.007825082
000300 3b ef 04 bd 4f 02 44 3b 1d 5d 58 3d 99 9d 3a bd
       -0.03245471 0.0029908603 0.052823175 -0.045560453
000310 57 d3 36 3d 61 fb d9 3b c3 68 1d bd 64 a5 90 bd
       0.044635143 0.006652281 -0.038429987 -0.07062796
000320 15 b8 51 bd 84 81 8a bd 25 89 58 3d 1a d3 89 bd
       -0.051200945 -0.067629844 0.052865166 -0.067297176
000330 81 3a 91 3d c3 ed c1 bc 04 10 27 3b a3 8d ab 3c
       0.07091237 -0.023672944 0.0025491724 0.020941561
000340 cc 9a 13 3d e5 19 ee 3c 0d 18 76 3d 04 11 3e bd
       0.036036298 0.029065082 0.06008153 -0.046402946
000350 72 e8 e7 bc fd 19 2c bd 15 98 26 bd c0 db d3 bc
       -0.02830908 -0.04201697 -0.04067238 -0.02586162
000360 27 aa 1c 3d 64 5b ec bc 4f d8 f7 bc 7e a0 3f 3c
       0.038248207 -0.028852172 -0.030254511 0.011695979
000370 57 fb 9e 3c 3f 29 4d 3d cd 7e 3c 3d b9 0b 5c bc
       0.019406958 0.050088163 0.046019364 -0.013430529
000380 47 1b 97 bb 24 03 fc 3c cb 6b 1b 3d 1a 22 7e bc
       -0.004611406 0.030763216 0.037944596 -0.01551106
000390 b1 1e 0e 3d ee f6 39 bd 76 1c c9 bc e5 5e 23 bc
       0.03469724 -0.045401506 -0.024549704 -0.009971355
0003a0 c4 46 f4 bc a8 da 79 3c b7 f7 1f bd 0e 70 22 3c
       -0.0298189 0.015249886 -0.0390546 0.009914411
0003b0 32 5d 9b bc d6 88 7b bd 73 4c ff 3c 77 57 7b bd
       -0.018965337 -0.061409794 0.031164384 -0.06136271
0003c0 20 46 03 3d 39 71 dd 3b 27 b9 3d bd e6 ac e9 3c
       0.0320493 0.006757882 -0.046319153 0.028524827
0003d0 e8 6b ac bb 24 0d 42 3d a5 6d a5 bc fc b9 18 bd
       -0.005261887 0.047375813 -0.020193884 -0.037286744
0003e0 eb 96 67 3d 04 f0 83 bd df af d7 bb ec 22 c2 3c
       0.05654041 -0.06442264 -0.0065822448 0.023698293
0003f0 6a 02 e0 bc 7f 50 2a 3d 50 6f 80 3d a1 91 4b bc
       -0.027344901 0.041580673 0.06271231 -0.012424857

encoder.0.bias f4 [256]
000000 2f 08 bb bb aa f1 ea 3b 67 62 02 3d 2f 9f 1a bd
       -0.0057077627 0.007169922 0.031832125 -0.037749466
000010 a8 ac e1 39 3f 46 94 3d 98 fb d6 3a 28 e6 44 3d
       0.00043043983 0.07239961 0.0016401885 0.048071057
000020 43 0d fd 3c f7 63 5d bb eb 6a 27 3d 3a 9e 3f 3d
       0.030890113 -0.0033781508 0.04087345 0.046781756
000030 a1 87 47 3d 89 e7 76 3c 78 65 36 bd ca 90 e5 ba
       0.04871333 0.015069851 -0.044530362 -0.0017514464
000040 1f e1 ee bc f8 aa 4a 3d c2 fc a0 3d 96 24 ac 3d
       -0.02916008 0.049479455 0.0786071 0.08405416
000050 ed b4 23 3d e4 4e 1d 3d 3c ea 28 bd f0 ba 80 3d
       0.039967466 0.038405314 -0.04123901 0.062856555
000060 93 16 db 3c 65 cd 11 bd ae 69 e1 3c 92 8f d0 3c
       0.026744163 -0.03559627 0.027516212 0.025459085
000070 e1 7f d4 bc 4d cc 40 3c 02 98 ed bc 25 19 3d 3d
       -0.025939884 0.011767459 -0.029003147 0.046166558
000080 f0 1d c8 3c 7b 24 35 bd 3a b7 5c bc 03 65 ac bc
       0.024428338 -0.044224244 -0.013471419 -0.02104426
000090 4c 09 19 3d ec fa 95 3d ef 8e 88 bd a2 7a 99 3d
       0.03736238 0.0732325 -0.066678874 0.074940935
0000a0 4e 5f 21 3c 4f b7 76 bc bd 06 91 3d 5f a7 d8 3c
       0.009849383 -0.015058353 0.07081363 0.026446996
0000b0 01 c3 47 3d 17 5e f4 3c 26 32 31 bd aa 22 99 3d
       0.048769955 0.029830022 -0.043260716 0.07477315
0000c0 2a f4 30 bc 2e 98 dc bc 73 6f 0d 3d 9b 29 0e 3d
       -0.010800401 -0.026928034 0.034530114 0.034707647
0000d0 5f 65 c6 3c 55 b6 2b 3d f9 23 1d 3d 42 b8 55 bd
       0.02421826 0.041921932 0.038364384 -0.052177675
0000e0 7f fe e2 3c 5b 17 1d 3c 42 bd 72 3d 07 f2 32 3c
       0.027709244 0.009588088 0.05926252 0.010921962
0000f0 33 2b b2 39 89 bf bb 3c 87 b4 3a bc 71 12 81 3c
       0.00033982992 0.02291848 -0.01139558 0.015755864
000100 05 c2 5b 3c b1 5d 81 3c e6 da 14 3c a0 21 37 bd
       0.013412957 0.015791746 0.009085393 -0.0447098
000110 ca e7 20 3d 85 c9 ad 3b 68 78 90 3d 73 f3 1b bd
       0.03928355 0.005303564 0.07054216 -0.03807397
000120 97 c5 09 3d 9d 59 a1 3d a1 10 82 3b fb d8 6b bc
       0.033635702 0.078784205 0.0039692675 -0.014394994
000130 aa 75 8d 3d 7f 48 9d 3d 0b fe ce ba 98 0a 59 bd
       0.06907208 0.07679843 -0.0015792263 -0.05298862
000140 18 5e e1 3c b1 64 e5 3c a3 d7 5b bd 4a ff e9 3c
       0.027510688 0.028002115 -0.053672444 0.028564114
000150 8c e8 34 3d b5 cd 71 3d 8a 0b f8 3c fa 80 6f 3d
       0.044167086 0.05903407 0.03027894 0.05847261
000160 36 68 3e bd 82 ca 64 3d fa b7 1c bd da 76 9f 3d
       -0.046486102 0.05585719 -0.03826139 0.07786341
000170 09 e6 dd 3b fe 38 3d bd ff 70 eb bc 7b e0 3b 3d
       0.006771807 -0.04619693 -0.028740404 0.045868378
000180 c7 b4 f5 3c 2b 24 f7 bc 90 f9 1d 3c de 89 09 bd
       0.029993428 -0.030168613 0.00964202 -0.033578746
000190 5d 56 52 bc 70 95 e2 bc 87 4a 18 3d 9a 78 5f 3d
       -0.012837973 -0.027659148 0.03718045 0.054558374
0001a0 d3 e8 b6 3c 1c 56 ee 3c 15 96 6d 3d 27 f0 4a bd
       0.022327816 0.029093795 0.058004458 -0.049545433
0001b0 21 26 26 3c a0 b2 82 3d ef 2d 84 3d 29 23 1a bd
       0.010140927 0.06381726 0.06454074 -0.037631188
0001c0 24 aa b6 3b 02 37 17 3d 70 b0 39 3c d4 2e 89 bd
       0.0055744816 0.036917694 0.01133357 -0.06698385
0001d0 1e 00 62 3d 25 1a dc bc 44 6a ac 3d 07 ca 5c bb
       0.055175893 -0.026867935 0.08418706 -0.0033689754
0001e0 60 57 33 bd df 5e 3e 3d e2 6d 3b 3b 61 51 db 3c
       -0.0437845 0.046477195 0.002859943 0.026772203
0001f0 2f d0 f1 3c 6c 5e 7a 3d 8b 10 6f 3c a6 f3 58 bd
       0.029518215 0.061125204 0.0145913465 -0.052966736
000200 9e ff 87 3d 8e de 9c 3d 8d 12 5d bc 01 ef 0c 3d
       0.06640552 0.076596364 -0.013493192 0.03440762
000210 e5 22 11 bd a6 7b 93 bc 8b 6b 87 3d f0 50 1d bd
       -0.03543367 -0.018003296 0.06612309 -0.038407266
000220 07 08 1d bd 37 d6 cc bb bf c3 f1 3c 68 de 39 3d
       -0.038337734 -0.0062511223 0.029512284 0.04537812
000230 4b cd 92 3d e0 63 1c bd 24 d5 87 bc 37 85 1b 3c
       0.07168063 -0.038181186 -0.016581126 0.00949221
000240 62 b2 f2 bc 0d bc 17 3d 9a 0f a8 3c 90 5e 66 bc
       -0.029626075 0.037044574 0.020515252 -0.014060631
000250 24 61 6e bd 60 de 69 bc c8 33 83 bc 60 89 a4 3d
       -0.05819811 -0.01427421 -0.016015902 0.08034015
000260 36 64 48 bc 39 cf 87 3c 53 01 98 3d 80 d2 b0 bb
       -0.012230923 0.016578304 0.074221276 -0.0053961873
000270 d3 71 3b 3d 43 99 f0 3c af 6a 71 bd 23 ce a1 3d
       0.045762848 0.029369956 -0.058939632 0.079006456
000280 d1 18 3f bc 98 ec b6 bc 4f fe 1d 3d 6c 85 09 bd
       -0.011663632 -0.022329614 0.038572606 -0.033574507
000290 fa d9 ff 3c bc 17 46 3d 5e 6b 1e 3d 93 20 cb 3c
       0.031231869 0.04836248 0.038676612 0.024795806
0002a0 69 f3 a1 3d ad 5e 46 3c 25 d5 22 bd bc 22 32 bd
       0.07907755 0.012107533 -0.03975405 -0.043490157
0002b0 e8 ca 12 3d f3 1f 98 3d e2 f2 e2 ba 25 e2 9b 3d
       0.035838038 0.07427969 -0.0017314816 0.07611493
0002c0 32 9a 04 3d 50 79 95 3c 8b 6b 2a bb 76 d5 f9 3b
       0.032373615 0.018246323 -0.0026004042 0.0076243235
0002d0 f8 7b 6d 3d db 1e 67 3d 53 62 93 3d 2c 36 92 3d
       0.057979554 0.05642591 0.07196488 0.07139239
0002e0 5f 60 2d 3c 2a c2 57 bd a6 91 c1 bb d0 82 53 bc
       0.010582059 -0.052675404 -0.005907255 -0.012909606
0002f0 6a 5e 70 bd 65 c3 29 3d 3c 94 2a bb 3f 8c 32 3d
       -0.05868379 0.04144611 -0.0026028296 0.04359078
000300 51 d1 05 bd 15 7a 62 bb 7b 5d 98 3d 26 7a 2c bd
       -0.032670323 -0.003455763 0.07439705 -0.042108677
000310 d2 1b 12 3c 4b d7 88 3d f4 75 d2 bb ea e6 a8 bc
       0.008917766 0.06681689 -0.0064227525 -0.02061792
000320 2d 6f c6 bc c1 9d 9c bd f4 ac 07 3c 06 71 89 bd
       -0.024222935 -0.07647277 0.008280981 -0.06711011
000330 d2 bf 6c 3d 73 3e 5e 3d d9 33 a9 3c 07 8b 07 3d
       0.05780012 0.054258775 0.020654606 0.03309157
000340 05 d9 a4 3d 39 af e4 bc 5a 34 12 3b 3a 63 f3 bb
       0.08049206 -0.027915584 0.0022309036 -0.0074276
000350 91 47 9d 3d 17 7a ab 3d 3d 73 0e bd 30 cf 65 bb
       0.07679666 0.08372896 -0.03477787 -0.003506612
000360 31 01 72 3c c1 76 ca bc 62 5b ca bc c6 62 20 3d
       0.014770792 -0.02471483 -0.024701778 0.039156698
000370 95 85 90 bc 57 77 6d 3d 84 69 89 3d 30 8d a1 3c
       -0.017641822 0.05797514 0.06709579 0.019720644
000380 01 2d 86 3d 49 da 43 bc 7f 10 df 3b 31 d7 9f bd
       0.065515526 -0.011953899 0.0068073864 -0.078047164
000390 92 99 a1 3d 84 55 92 3d 7f a9 34 3c 5e 9b 56 bd
       0.07890619 0.07145217 0.011026739 -0.052394263
0003a0 61 e2 6a 3d 4c 81 84 3d 7d 3a e2 bc 75 93 79 3d
       0.057344798 0.06469974 -0.02761578 0.06093164
0003b0 61 c2 50 bc 50 4f ad bc 5a 85 4a 3d 97 c1 f8 3c
       -0.012741656 -0.021155983 0.04944358 0.030365748
0003c0 85 a8 a5 3c ed 6f 29 3c 59 0b 16 bc cd 52 05 bd
       0.020221958 0.010341627 -0.009157979 -0.032549668
0003d0 83 a0 20 3d d4 6e 20 3a 2c 52 0e bd 10 58 05 bd
       0.039215576 0.00061200303 -0.034746334 -0.032554686
0003e0 cc 86 3f bd 64 de cf bc b2 82 2a 3d 8f c7 1e bd
       -0.04675941 -0.025374599 0.041628547 -0.038764533
0003f0 4c da 92 3b 1d 36 8f 3d f9 f8 6d bd c2 fe 29 bc
       0.0044815894 0.06992743 -0.058098767 -0.01037568

encoder.2.weight f4 [128, 256]
000000 de c0 16 bd 47 ec da bc a3 c0 c6 3c 79 de a3 3c
       -0.036805026 -0.026723994 0.024261778 0.020003544
000010 37 15 33 3d 89 e7 c5 3c e0 f3 09 3c 82 c1 13 3d
       0.043721404 0.024158256 0.008419961 0.036073215
000020 dc 88 18 bd 80 a6 5a bc fb a2 8c bd 52 c6 1a bd
       -0.037239894 -0.013345361 -0.068670236 -0.03778679
000030 8f 10 95 39 c7 ba f5 bc e2 66 72 bc 80 ac 1e 3d
       0.00028431832 -0.029996289 -0.014795037 0.038738728
000040 a4 ad 3c bd 77 c3 07 bd fd db 28 3d 61 33 b0 bc
       -0.046064034 -0.033145394 0.041225422 -0.021508874
000050 38 63 54 3d d5 d6 77 3c 69 4b 98 3c ad 3b a6 bc
       0.051852435 0.015126904 0.018590646 -0.020292128
000060 29 fc 99 bc c6 9c 5f bd b8 a9 6d bc a5 79 1d bd
       -0.018796997 -0.05459287 -0.014505796 -0.038446087
000070 6d 69 90 bd ef 2f 58 3b c0 be 3a 3d dc 63 4f bb
       -0.07051358 0.0032987555 0.04559207 -0.0031645214
000080 d6 1c 97 3b 8a c5 82 bd de c9 13 bc 56 2c 27 bd
       0.004611592 -0.06385334 -0.009020297 -0.040813766
000090 2f 7c 79 bd 8d 5c 14 3a fd 0e c1 bb 20 3f 95 bb
       -0.060909446 0.0005659543 -0.0058916793 -0.004554644
0000a0 77 db 6f bd 7e f8 ad 3c 07 5f bb bc 62 f7 1d 3d
       -0.058558907 0.021236654 -0.022872461 0.038566
0000b0 e2 f7 7d bd 5f 04 00 bc ae a6 a7 3a ea 7b 98 bc
       -0.062003978 -0.007813542 0.0012790763 -0.018613774
0000c0 33 f7 2e bd 61 43 85 bd 3a c0 eb bc 9b 55 4c 3d
       -0.042716216 -0.06506992 -0.028778184 0.049886327
0000d0 07 7a 03 3d 78 5c d6 bc db 60 3a 3d 85 5c d0 bc
       0.032098796 -0.02616714 0.045502525 -0.025434742
0000e0 00 16 97 3b e0 56 85 bd 44 f4 2d 3c 2a da 68 3d
       0.004610777 -0.06510711 0.0106173195 0.056848682
0000f0 c9 d1 48 bd 1a d3 be 3c 11 86 74 bd 9c 5c 24 bd
       -0.04902819 0.02329402 -0.05969817 -0.04012738
000100 a6 80 0d bd a8 68 9e bc f5 73 2f bd d2 ca f2 ba
       -0.034546517 -0.019337013 -0.042835195 -0.001852358
000110 13 59 b7 3c 00 2c 98 3b 93 ee 4b 3c 68 bf 80 3d
       0.022381341 0.004643917 0.012447017 0.06286508
000120 55 97 ae bc 7c 8e 2d 3d f5 37 f3 bc 0d 9a 5c 3d
       -0.021312395 0.04237221 -0.029689768 0.05385785
000130 ec fd 2e bd c5 eb 48 3b 09 4b a7 3c 78 30 5a bd
       -0.042722628 0.0030658108 0.020421522 -0.05326888
000140 49 ca 70 bd 92 9b a7 bc 95 45 44 3d 55 8a e6 3c
       -0.058786664 -0.020459924 0.04791792 0.028142134
000150 8a 31 96 bd 3e 22 a9 3c 8b 91 97 bd f4 6e 15 bd
       -0.073336676 0.02064621 -0.07400807 -0.036482766
000160 12 39 9a bb dc f0 c1 ba 49 72 5c bd b3 a0 3d 3d
       -0.0047065103 -0.0014796513 -0.05381993 0.046295833
000170 d4 9b 85 bd 35 fc 67 3c 2e 98 ad 3b 6d cd 18 3d
       -0.065238625 0.014159252 0.0052976822 0.037305284
000180 f7 f8 0c bd 51 dd 06 bd ea ed ad 3a ff 8c 30 bd
       -0.03441712 -0.032925908 0.0013269756 -0.043103214
000190 e3 bb 44 3d e1 88 8c 3b e9 bf 0c bd ac d7 d2 3c
       0.048030745 0.004288778 -0.034362707 0.025737606
0001a0 e0 5c aa 3a 4a ea ce 3c d7 78 16 bd a9 ff 27 bd
       0.001299765 0.025258202 -0.036736336 -0.0410153
0001b0 68 54 a3 3c 7a 47 df bc a6 39 5f 3c 64 9b ab bc
       0.019937709 -0.027255762 0.013624584 -0.02094812
0001c0 37 b6 86 3c d3 4d 2f bd cd 68 28 bd fe 05 48 3d
       0.016444309 -0.04279883 -0.04111557 0.04883384
0001d0 7d 9b 5d 3a 5f 53 49 3d b2 63 4e bd 07 ff 39 3c
       0.00084536505 0.049151774 -0.050388046 0.011352307
0001e0 ac 08 92 bc 3f a6 34 3d 45 21 37 bd 52 1c c4 bb
       -0.0178264 0.044103857 -0.044709463 -0.0059848214
0001f0 fa 0c 53 bc 5f 32 1f 3d 04 b0 8c bc b2 d8 c2 3c
       -0.012881512 0.038866397 -0.017173775 0.023784969
000200 d5 10 8a 3c 12 4b 91 3a 39 b5 fa bb bf 8e 26 3d
       0.01685373 0.0011084995 -0.007650998 0.040663477
000210 bb f8 80 bd 60 32 5f bd cf 59 3b 3d b2 e5 07 bd
       -0.062974416 -0.0544914 0.045739945 -0.03317804
000220 35 84 7c bb 10 c3 28 bd 62 30 5d bd 1a a9 41 3d
       -0.003853095 -0.04120165 -0.05400122 0.04728041
000230 c0 f5 8c bd 5a 93 90 bc 4e 41 b4 bc ca 16 4d 3d
       -0.068828106 -0.017648388 -0.022003796 0.05007056
000240 72 7b 17 bd 9c e2 ae 3c a4 39 d6 bb 38 8b cd 3c
       -0.03698296 0.02134829 -0.006537633 0.025090799
000250 28 0b b5 bc 5c a2 af 3c 73 53 a8 bb b9 bb 86 3c
       -0.022100046 0.021439724 -0.005136901 0.016446935
000260 42 7c 2a 3c c7 5e 52 bd ee cd 01 bd 5a d4 30 bd
       0.010405602 -0.051359918 -0.03169053 -0.043171264
000270 ee be 54 bd f1 5f dd 3c 99 7b a7 3c 56 c8 b0 bd
       -0.051939897 0.027023287 0.020444678 -0.08631961
000280 07 16 e3 bc 90 68 a7 bd 60 bf f5 bc e9 40 34 3d
       -0.027720464 -0.081742406 -0.029998481 0.044007216
000290 f4 df 12 3c e1 b3 cd b9 e2 16 e3 bc 93 02 c9 3c
       0.008964527 -0.00039234667 -0.027720872 0.02453736
0002a0 44 22 fb bc 45 50 ac bc fb 09 0a 3d 13 a1 2c bd
       -0.030655988 -0.02103437 0.033700924 -0.0421458
0002b0 9f 16 01 3d 6d 6c 07 bd 48 ae 1c 3d 3c 44 df 39
       0.031515714 -0.033062387 0.038252145 0.00042584713
0002c0 0a f5 a5 3b e0 fa 0b 3d a6 5a 9a 3c c5 86 4d 3c
       0.0050646113 0.0341748 0.018842053 0.012544339
0002d0 b5 06 90 bd 43 49 36 3d 50 cc 1f 3d f9 84 4e bd
       -0.07032529 0.04450346 0.039013207 -0.05041978
0002e0 13 9f 42 3c 3c ae 7c bd dd 7d 1b 3d 93 8b f4 3a
       0.011878747 -0.0616896 0.03796183 0.0018657319
0002f0 c4 74 5d 3d 20 1f 27 3d 92 ab 21 3b 83 58 75 bc
       0.054066435 0.040801167 0.0024668914 -0.014974716
000300 b2 46 00 3d 3e ae 49 bc bf 2a 9a bd 1b 40 09 3d
       0.03131742 -0.012309609 -0.075276844 0.0335084
000310 84 c5 82 bd 3b 97 d8 3c 0b 4a 2a 3d b2 22 9f 3c
       -0.06385329 0.0264393 0.04157452 0.019425724
000320 6a d4 a7 bc 57 11 de 3b e2 35 2e 3c d3 09 5e bc
       -0.02048703 0.0067769694 0.010632964 -0.013552147
000330 84 9f f2 3c 0a 7d 4a bd 09 6c 96 ba e0 e2 4b bd
       0.029617079 -0.049435653 -0.0011476289 -0.04977691
000340 38 1d de bc a6 7d ee bc ca 0e ee bc 4e ab a5 bb
       -0.027113542 -0.029112648 -0.029059786 -0.0050558215
000350 f3 85 96 bd e0 be bb bc 9a 40 df bb 22 c9 4e 3d
       -0.073497675 -0.022918165 -0.006813121 0.050484784
000360 79 8b cb bc e3 31 6f 3c 61 df 3f bd 90 6b 31 bd
       -0.02484678 0.014599296 -0.04684389 -0.04331547
000370 01 a8 5e bb ef cf 4d 3d af 68 9c 3b 25 9f 30 bb
       -0.003397465 0.05024713 0.0047732214 -0.0026950326
000380 2d f8 58 bd 32 7a d5 3b f5 c8 3f bd 6a a4 25 3d
       -0.052971054 0.006514811 -0.046822507 0.04044
000390 fa b8 3f bd ed 61 05 bd d6 7b 83 bc b9 39 9b bc
       -0.046807267 -0.032564092 -0.01605026 -0.018948423
0003a0 da b6 0b 3d 49 d9 cf bc 74 88 f4 3b 0e f3 ba bc
       0.034109928 -0.025372164 0.0074625555 -0.022820976
0003b0 b2 37 82 bd 73 ab 95 3a 21 04 96 bd 5f 74 af 3c
       -0.06358279 0.0011418894 -0.07325006 0.021417795
0003c0 47 0b 47 bc 97 d5 83 bb e9 aa db 3c d4 07 25 3d
       -0.012148685 -0.0040232646 0.026814895 0.04029067
0003d0 13 9f 46 bd 2f c1 33 3d 71 3a 87 bb 5e 46 0c bc
       -0.04849155 0.043885406 -0.00412684 -0.008561699
0003e0 4f 08 25 bc 15 7d 07 bd 75 79 62 bd 7e 24 5d bb
       -0.010072782 -0.033078272 -0.05529161 -0.0033743675
0003f0 d9 71 70 bd 73 68 1d bd 74 f7 28 3d 61 8a 05 bd
       -0.058702324 -0.03842969 0.041251615 -0.03260267

encoder.2.bias f4 [128]
000000 c4 80 8b bd 93 bd 31 3c da 2a 1e bd 12 d7 07 3d
       -0.068116695 0.010848421 -0.038615085 0.03316409
000010 62 0e 60 3d 89 ca 8b 3d 43 80 a8 3d 2a d4 91 3d
       0.054701217 0.0682574 0.08227589 0.07120545
000020 f1 38 a4 bd b6 9d ed bb 37 8e 09 bc a4 b4 f8 3c
       -0.08018673 -0.0072514666 -0.008395723 0.030359574
000030 c2 5d 7b 3d ba 16 0c 3d 2d 80 3b bd 7f 05 85 bd
       0.06136871 0.03420136 -0.045776535 -0.06495189
000040 42 33 15 3d 89 02 8c bd 07 2d e3 bb e4 2b 17 bd
       0.036425836 -0.06836421 -0.006932858 -0.03690709
000050 24 a4 69 3d 36 2d 10 bd c8 1a 13 3d 07 d7 9a 3d
       0.057041302 -0.035199367 0.035914212 0.075605445
000060 d9 3c 3d 3d 10 7c 31 bd 0d 88 09 bc e4 72 39 bd
       0.046200607 -0.043331206 -0.008394253 -0.045275584
000070 a3 9c df bb 7b c3 9c bd 33 f8 3b bc 87 08 64 bd
       -0.0068240925 -0.076544724 -0.0114727495 -0.055672195
000080 d6 23 74 bc 3c bf a4 bd 24 dc dd 3c ab 2c 25 bc
       -0.014901122 -0.080442876 0.02708251 -0.01008145
000090 84 18 ac bd 9d 35 54 bb 83 8d 3a 3d d4 17 f3 3c
       -0.084031135 -0.0032380589 0.045545112 0.029674448
0000a0 5e 61 8d 3d 98 07 c1 bc be cb 88 3c 2e c8 7e 3c
       0.06903337 -0.023563191 0.016698714 0.015550656
0000b0 b6 a3 18 3d 6c 3f 52 3c 21 91 9a 3c fe 6a fb 3c
       0.037265502 0.012832504 0.018868031 0.030690666
0000c0 d6 66 d6 bc 9f e1 32 bd 78 33 ec bb 31 c9 a0 bd
       -0.026172083 -0.0436722 -0.007208284 -0.07850874
0000d0 01 ca 89 bd 5d 93 d6 3a d1 9a 78 3d e3 15 79 bc
       -0.06727982 0.0016370822 0.06069452 -0.015202972
0000e0 16 03 aa bd d5 b8 ec bc f6 e9 2e bd 5a 90 a1 3d
       -0.0830137 -0.028896729 -0.04270359 0.07888861
0000f0 79 44 93 3d 24 9f 56 bd fd f0 8d bd 5e 1a 58 bd
       0.071907945 -0.052397862 -0.069307305 -0.05275952
000100 ef b1 ee 3c 89 5b f6 3b 7a e9 67 bd 4a e3 ea 3a
       0.02913758 0.007518236 -0.056619145 0.0017920521
000110 13 27 12 3d 29 ba 70 bc 6b ca 85 bd 4d 2a 8d bd
       0.035681795 -0.014692822 -0.06532749 -0.06892834
000120 a6 41 10 3d 8a 98 35 bd c6 5b 1f 3b 88 bf 8c bc
       0.035218857 -0.044334926 0.0024316176 -0.017181173
000130 84 13 aa 3d e7 40 6c 3c 68 eb 0c 3d b2 31 a4 3d
       0.083045036 0.014419771 0.03440419 0.08017291
000140 78 1b 25 3c 3e 3e ec 3c de 0d b7 bc ae c9 ab 3b
       0.01007735 0.028838273 -0.02234548 0.005242548
000150 4c e7 f5 bc 10 2c c0 3b 91 c9 1e bd 52 0c 2b bd
       -0.030017518 0.0058646277 -0.038766447 -0.041759796
000160 72 8e 18 bd 8f 9f 6b bd 05 05 9c 3d 79 7c 6c 3d
       -0.03724522 -0.057525214 0.07618145 0.057735894
000170 54 1e 4f 3d 8c 16 43 bc cd a1 2c 3d f5 63 c4 3c
       0.050566033 -0.011907231 0.042146493 0.023973444
000180 89 41 75 bd a0 51 2e 3c c3 f8 31 3d 0a 23 61 3d
       -0.059876952 0.010639578 0.04345013 0.054965056
000190 0f a3 55 bd 30 00 98 bc b9 8c 87 bd 3d 38 10 bc
       -0.052157458 -0.018554777 -0.066186376 -0.008802471
0001a0 39 15 14 bc e3 ea 65 3c d6 88 62 bd b2 b7 42 3d
       -0.009038263 0.014033052 -0.05530628 0.047538467
0001b0 0a 24 9d 3c ce fc 37 3d 27 35 4c bd 68 d7 3d bc
       0.019182224 0.044918828 -0.049855378 -0.011587001
0001c0 e4 82 2b bd 38 d7 a9 bd 95 37 55 3d f1 02 8a bd
       -0.041872874 -0.08293003 0.05205496 -0.06738842
0001d0 4d 68 7e 3b 27 1f 5f 3c 33 e1 a3 3d b0 c6 3e bc
       0.0038819492 0.013618267 0.08001938 -0.0116440505
0001e0 b4 01 0a 3c 4e b3 97 bb 42 3c e7 bc 69 95 66 3d
       0.008423258 -0.004629529 -0.028226975 0.056294832
0001f0 7d 1d 05 3d 42 52 80 3d 04 8c a9 3d 04 7d 90 bd
       0.032498825 0.062656894 0.08278659 -0.07055095

decoder.0.weight f4 [256, 128]
000000 61 cc 89 3d 10 f7 8a bd 86 72 c5 3d 94 15 c8 bc
       0.06728435 -0.06785405 0.09640984 -0.024424352
000010 97 f3 f5 bc 08 84 68 bd 7b ce 3c 3c 21 70 6a 3d
       -0.03002338 -0.05676654 0.011523838 0.05723584
000020 60 6c 3c 3d b6 0e 91 3c 6a 38 e6 3c ef 57 46 bd
       0.046001792 0.01770721 0.028103072 -0.048423704
000030 99 9f 03 bb 7d c3 a1 bb 4b 5f 15 3d 99 45 29 3d
       -0.0020084141 -0.004936634 0.03646783 0.04132614
000040 09 59 5b bd 18 41 45 3d 6b 69 e3 bd 40 6d 61 3d
       -0.053551707 0.04815778 -0.11104091 0.05503583
000050 45 21 c8 bc f4 9c b0 3c f9 96 e8 3c e3 d0 c5 3c
       -0.024429927 0.021559216 0.028392302 0.024147457
000060 37 3d 34 bd da 34 9f 3c 8d be c5 bc 66 64 91 bd
       -0.04400369 0.019434381 -0.024138713 -0.070992276
000070 35 eb 9e bc e6 1e 19 3d 33 48 08 3d 25 2e 02 3c
       -0.019399265 0.037382983 0.03327198 0.007945572
000080 a7 44 8f 3c 6b ef 25 3c a1 28 0d 3d f2 3d c5 bd
       0.01748879 0.0101278825 0.034462575 -0.09630956
000090 c4 cc be bd c0 78 5f 3d 70 29 63 bc dd d0 77 bd
       -0.093164 0.054558516 -0.01386486 -0.060501922
0000a0 e7 b6 14 3d ad 11 69 bd 2b f6 76 3d b1 74 66 bd
       0.03630724 -0.056901623 0.060293358 -0.05626363
0000b0 c8 c6 30 3d 40 e8 d5 3c b1 71 d1 bd 36 ff 5b bc
       0.043158323 0.026111722 -0.10226763 -0.013427546
0000c0 00 ce b0 3d 89 d5 48 bd c4 53 b1 bd e1 ab cc bd
       0.086330414 -0.049031768 -0.08658555 -0.09993721
0000d0 45 b3 7b 3d c6 ed a4 bc e4 10 75 ba 05 cb c4 3c
       0.06145026 -0.02013291 -0.0009348525 0.024022589
0000e0 c9 69 64 3d cf 3e fa 3b a8 7b 26 3d c2 ec b5 3d
       0.055764947 0.007636882 0.04064527 0.088830486
0000f0 c3 32 91 bd a5 1f 26 3d 2a a9 27 bd 37 2a 10 3a
       -0.0708976 0.040557522 -0.04093281 0.00054994546
000100 42 6d 12 bd 0a d0 48 bd 6c 01 34 3d 15 e6 0a 3c
       -0.035748728 -0.049026527 0.04394667 0.008477707
000110 18 cc e2 3c da e4 78 3c 4d d4 b3 bd 10 0d 83 bd
       0.02768521 0.015191281 -0.087807275 -0.06398976
000120 7b a8 42 3d f1 04 2c 3d 66 51 99 3d 52 1d bd b9
       0.047523957 0.0419969 0.07486229 -0.00036070734
000130 23 0f 8f bc 3d 6f b7 bd 1d 0f 9c bc 36 bb 77 bd
       -0.017463272 -0.08956764 -0.019050175 -0.060481273
000140 02 b0 3d bd 2a db 20 bc ae 5f 1e bd e1 2e df bc
       -0.046310432 -0.009817878 -0.038665466 -0.027244033
000150 59 43 b1 3d 2d 89 16 bd 5e a3 f4 bc c5 b1 4d bc
       0.08655424 -0.036751915 -0.029863056 -0.012554591
000160 db 7d e5 bc ee 09 9f 3c f7 fd c9 3d 68 4b 2a 3c
       -0.028014114 0.019413915 0.09862893 0.010393955
000170 ae ae 86 bd 1e ba f3 ba b4 02 d0 3d bf c3 1e bd
       -0.06576286 -0.0018594896 0.101567656 -0.038760897
000180 a6 66 d1 3b 43 d2 12 bd d9 a9 67 bd 1c 67 fb 3c
       0.0063904105 -0.035845052 -0.056558464 0.030688815
000190 b9 31 ca bd df 31 13 3d 38 02 ee bc bb 63 6a bb
       -0.09872765 0.035936233 -0.029053792 -0.003576501
0001a0 89 59 3f 3d d0 26 f0 3a 15 71 6c bc 00 c8 df bc
       0.046716247 0.0018322114 -0.014431258 -0.027317047
0001b0 a0 82 2d bc 52 38 b2 bc e1 35 66 bd 06 6c 01 bd
       -0.010590225 -0.021755371 -0.056203727 -0.03159716
0001c0 e1 34 9e bd 98 e6 1a bc e2 15 f1 3d 48 f5 94 bd
       -0.077249296 -0.009454392 0.11771752 -0.07273346
0001d0 82 31 46 3d 9f 6e e5 bd f3 31 cf 3c b6 3b cf bd
       0.048387058 -0.1120274 0.025292372 -0.10118811
0001e0 db 70 07 3d c7 a5 c1 bd 8a 22 8f bd 9e d9 17 3c
       0.03306661 -0.09455448 -0.0698901 0.009268193
0001f0 f5 73 f8 3c 8e d2 6c 3d 29 0c a1 3d f3 eb a0 bd
       0.03032873 0.057817988 0.078636475 -0.07857504
000200 95 db 84 bc 48 6d 20 3d 6a c6 c2 3d 6d 4d af 3d
       -0.016217986 0.03916672 0.09510501 0.0855969
000210 01 f4 aa bc a7 4a 44 3d 4e ac 9b bc 1a 5d c9 3c
       -0.020868303 0.047922757 -0.01900306 0.024580527
000220 65 37 61 3d bc 05 83 bd 60 7b 2c 3b a6 46 92 3d
       0.05498447 -0.06397578 0.0026318654 0.07142381
000230 f6 56 6a bc 22 d9 82 bd 12 3d 7e bd 25 ad 92 bc
       -0.01430296 -0.06389071 -0.06206996 -0.017904827
000240 f3 b2 a0 3d fe cb e5 3c 45 06 ec 3b 3d b7 4e bc
       0.07846632 0.028051373 0.007202896 -0.01261693
000250 40 33 9b bc eb 23 c5 bd 37 f3 52 3d 9b ed 48 3c
       -0.018945336 -0.096259914 0.05150148 0.012263681
000260 0d 68 7f bd cf 4e 89 bc 91 bc c6 3d 11 d3 88 3b
       -0.06235509 -0.016761212 0.09703935 0.0041755517
000270 21 c6 f8 bb 5a 20 53 3d 97 8a bc bd 1e ee 8f 3d
       -0.007591978 0.051544525 -0.092061214 0.07027839
000280 3b e3 53 bd d5 ea 74 3b 84 53 2d 3d 86 e8 54 3d
       -0.051730376 0.0037371416 0.042315975 0.051979564
000290 c5 3f 32 bc 8a ee 8f 3a a4 0a 18 bd 1c 25 a2 3d
       -0.010879462 0.0010981124 -0.037119523 0.07917234
0002a0 30 95 83 bd 62 70 a1 bc b6 46 87 3d 63 5d 92 bc
       -0.0642494 -0.019706909 0.06605284 -0.017866796
0002b0 80 4e 51 3c de 26 12 bd 37 2f 92 bd c6 ca 3a 3c
       0.0127750635 -0.035681598 -0.07137912 0.011400884
0002c0 13 0b d4 bc 8a 30 9e bd 2d 90 aa bd 51 63 55 3d
       -0.025884187 -0.07724102 -0.083282806 0.05209667
0002d0 4f 74 8e 3d ef 03 99 3d b9 68 9d 3d 3b 0b d4 bc
       0.06955778 0.074714534 0.0768599 -0.025884261
0002e0 3b 24 76 bd 25 ec 94 bd 18 52 65 bc 9d 1a 89 3d
       -0.060093146 -0.072716035 -0.013996623 0.06694529
0002f0 b7 d8 86 3d 47 32 ac 3d 68 e8 9b bb ef ef 23 3c
       0.06584304 0.08408027 -0.0047579296 0.010005935
000300 8a ad 52 3c 6f d1 51 3d 14 d3 27 3d 5c 77 a1 bd
       0.012858758 0.051225122 0.040972784 -0.07884094
000310 df aa 38 bd 55 ae 81 3d 2d 3c 98 bc 69 25 29 bd
       -0.04508483 0.06332079 -0.018583382 -0.041295443
000320 a9 30 9f 3d 95 bd 9e bd 4d 0b 5d bd 6d 8c 85 3c
       0.07772953 -0.07751004 -0.053965855 0.016302312
000330 f3 50 90 3d d7 0b 96 3d 48 c0 95 bd 5a 83 1a 3d
       0.0704669 0.07326477 -0.07312065 0.037722923
000340 dd 17 94 3d 0b 1d b5 bd 0e 85 0c 3b 1a 82 c6 3c
       0.07231114 -0.0884343 0.0021441611 0.02423196
000350 8c 95 9f bd e8 57 8c bd 9d 63 da 3c 89 8f e8 3c
       -0.07792196 -0.06852704 0.026658827 0.028388755
000360 32 03 83 bd 48 0f 81 3d bb 7c 99 3d da 38 35 bd
       -0.06397094 0.06301743 0.074944936 -0.04424367
000370 37 9d 95 3d d7 67 d5 3b 09 26 c1 3d 69 cc 0e 3c
       0.07305377 0.006512623 0.09431083 0.008715727
000380 5f 42 c0 bd 18 96 73 bd 7f 08 7e 3d 97 61 a2 3d
       -0.09387659 -0.059469312 0.06201982 0.0792877
000390 9d 4d a7 3c 30 2e dc bb 29 f0 39 3b f8 c4 73 bd
       0.020422751 -0.006719373 0.0028371906 -0.059514016
0003a0 cc 6e a7 3d a5 ab 8b 3d 41 99 05 3d 48 01 d0 3d
       0.0817543 0.06819848 0.032616857 0.101564944
0003b0 28 ca 2a bd 7a 73 a7 3c 9c ae 2a bd 04 dc 83 bd
       -0.041696697 0.020440806 -0.041670427 -0.06438449
0003c0 1d 08 b7 bb bb ee c6 bd 93 32 8a 3d 58 17 27 bd
       -0.005585684 -0.09713503 0.067479275 -0.040793747
0003d0 b1 e4 b6 3d d6 a3 d1 3c 12 19 36 3d 26 56 b7 bd
       0.08930338 0.025590818 0.044457503 -0.089519784
0003e0 12 e8 93 3d f6 dc 00 3d 79 6e 84 bd 79 66 bb bc
       0.07221998 0.031460725 -0.064663835 -0.022876011
0003f0 02 ec 91 3d f2 33 8c bb b8 59 c0 3d 61 6f 9d 3d
       0.07125093 -0.0042786533 0.093921125 0.076872595

decoder.0.bias f4 [256]
000000 51 7c 85 3d 44 da 4b bd 59 34 78 bd 16 59 3f 3d
       0.06517852 -0.0497687 -0.060596798 0.04671582
000010 00 9e 4c bb ff 8e 04 bd 06 4d 99 3d 4d 7a 10 3a
       -0.0031222105 -0.032362934 0.07485394 0.00055113883
000020 a4 b4 ec 3c 9c 0d a0 bd 5f 8f 18 bd 3b 14 72 3d
       0.02889473 -0.07815096 -0.037246104 0.059101325
000030 82 a8 ee bb de ec b0 bc ac 94 3b bd ea ba a4 3c
       -0.0072832713 -0.021597322 -0.04579608 0.020108659
000040 af 4f 1c 3b f0 c2 19 bd f1 11 7c 3d 51 eb 0d 3d
       0.0023851206 -0.037539423 0.061540548 0.034648243
000050 a3 5b 3b bd cd aa 8d 3b 31 7b 2a bd 34 56 7a 3d
       -0.04574169 0.0043233396 -0.04162139 0.061117366
000060 af 5a 3c bd 4b 4d da bc 8f 51 32 bd da e5 6b bd
       -0.04598492 -0.026648184 -0.04353481 -0.05759225
000070 5e 14 03 3d 48 5c 98 bd 4e 04 d6 bb 80 f1 0d bd
       0.032001846 -0.07439476 -0.006531275 -0.03465414
000080 d6 08 a2 3c 76 e0 8a 3c 4d e1 8e 3d 7d a6 52 bd
       0.019779604 0.016952734 0.069765665 -0.051428307
000090 bb b8 82 3d 21 db c9 bc 83 68 23 3b 74 1d c1 3d
       0.06382891 -0.024640622 0.002493412 0.09429446
0000a0 eb 09 0a bd d0 ea 80 3d e0 06 63 3d e0 43 7c bd
       -0.033700865 0.06294787 0.05542648 -0.06158817
0000b0 3b 92 1d 3d 20 a2 1a bd 73 db 60 3d a3 fb 1e 3d
       0.038469534 -0.03775227 0.054896783 0.0388142
0000c0 20 04 80 3d e4 e5 08 bd 92 98 45 3b 32 95 a3 3d
       0.06250787 -0.033422366 0.0030150753 0.07987441
0000d0 c4 8a bf 3d 49 ea 77 3d 29 7c 9a bd 5e 72 50 3d
       0.09352639 0.060526166 -0.07543213 0.05089032
0000e0 64 98 54 bd 4d d3 af 3d 28 48 e0 3c 19 8f 3a 3d
       -0.051903144 0.08585224 0.027378157 0.045546625
0000f0 e9 36 da 3d 4b 75 21 3d dd e8 72 bd 31 1b 83 bd
       0.106550045 0.0394185 -0.059304107 -0.06401671
000100 9c 69 f0 bc a0 a2 6a 3d d6 28 ca 3b 53 11 b6 bc
       -0.029347233 0.057283998 0.006169419 -0.022225058
000110 56 41 8f 3c f1 e5 e1 3b 2a 42 3e 3d 83 13 50 bd
       0.01748721 0.006893866 0.046449818 -0.050799858
000120 ef 1d 3d bd bd 40 9d 3d 9c c8 73 bd 13 be 8c 3d
       -0.046171125 0.076783635 -0.059517488 0.06872191
000130 e0 ef c9 bb a6 ec 9a bd 2c 9c a6 bd 0d 7f 82 bc
       -0.0061626285 -0.07564668 -0.08135256 -0.015929723
000140 45 05 2b 3d fc 4c a8 bc 17 45 9a bd 82 cf 11 3d
       0.041753072 -0.020544522 -0.07532709 0.035598285
000150 1c bf a0 3d 7e df 35 bc 56 b6 8e 3b ea e9 5c bb
       0.07848951 -0.011100648 0.004355232 -0.003370876
000160 bf bf d2 3d a5 34 04 bd 3d ec 6d 3d 06 4a 54 bb
       0.10290479 -0.03227677 0.058086623 -0.0032392754
000170 96 6b 6d 3c 6c 33 7d 3d 2f 06 4f bb 80 cb 0f 3d
       0.0144909825 0.061816618 -0.003158938 0.035106182
000180 92 f3 ad bc ba 82 28 bc c6 20 05 bd 12 7a 10 3d
       -0.021234307 -0.010285074 -0.03250196 0.035272665
000190 10 d1 7f 3d 20 81 de 3d 03 e1 2f 3c a6 1e 43 3d
       0.062455237 0.108644724 0.010734799 0.04763665
0001a0 a9 9b 2e 3d c1 70 f6 bb 1a ed 1b 3d 50 d5 00 3d
       0.042628918 -0.0075207655 0.038067915 0.03145343
0001b0 c4 fb 9c 3d 88 56 36 3d 2d 9f 70 bc 60 77 92 3c
       0.07665208 0.044516116 -0.014686388 0.017879188
0001c0 49 4f 63 bd 37 33 da bc c4 2d b3 3d 8c e1 0a 3c
       -0.055495534 -0.02663575 0.087489635 0.008476626
0001d0 c4 19 82 bd d4 54 0d bd 17 6f 30 bd ce 5c 88 bd
       -0.06352571 -0.034504727 -0.043074694 -0.06658326
0001e0 b4 91 b2 bd 98 d5 56 bd c2 56 ba bc 38 fc fc bc
       -0.08719197 -0.052449793 -0.022746447 -0.030881986
0001f0 39 a6 27 3d c9 ed b0 3d e5 6c 35 bd 0b d3 92 3d
       0.040930007 0.08639104 -0.044293303 0.071691595
000200 42 02 a8 bd 5c 42 f3 bc 91 81 b6 bc 7c 95 88 3d
       -0.08203556 -0.029694729 -0.022278579 0.06669137
000210 13 3f 5b 3d 56 c0 cb ba 93 8e ae 3d a8 f0 50 3d
       0.05352695 -0.0015544991 0.085232876 0.051010758
000220 62 4f 98 bd 60 f0 80 3d 97 0a d2 3d 57 52 b6 bc
       -0.07437016 0.06295848 0.10255926 -0.02225606
000230 f1 31 bf 3d c6 95 38 bd 76 f5 ac bc 9f 3f d3 3d
       0.093356974 -0.04506471 -0.021113139 0.10314869
000240 d0 59 8a bc f0 16 44 3d 90 02 16 bd a5 6f d6 3c
       -0.016888529 0.047873437 -0.036623538 0.026176283
000250 16 13 e4 bc 7a 37 85 bd 5b f6 ae 3d f1 2f 56 3d
       -0.027841132 -0.06504722 0.08543082 0.052291814
000260 83 a3 8c 3d 98 b0 3d bd 6e 0d 91 3d 83 5b 7f bd
       0.06867125 -0.04631099 0.0708264 -0.06234313
000270 78 b1 84 bd c7 ca 52 ba 72 a9 d9 3d f4 0e 83 bd
       -0.06479162 -0.00080410804 0.10628022 -0.063993365
000280 98 81 3a bd 52 32 d1 3d ef 7a 64 3b 2e 8d ab 3c
       -0.045533746 0.10214676 0.0034863313 0.020941343
000290 13 bb 09 bd 45 c9 93 bc d1 34 8e 3d 9c e6 77 3c
       -0.033625674 -0.018040309 0.06943668 0.015130665
0002a0 73 a1 8f bd af 7b cb 3d 37 a7 0a bd c2 25 ae 3c
       -0.07013216 0.099357 -0.033850875 0.021258239
0002b0 e6 15 4b bd 59 14 86 3d 71 20 dc 3d 5d 98 6f bd
       -0.04958143 0.0654685 0.10748375 -0.058494914
0002c0 b0 a3 b5 3d 99 6d 08 3c 54 bc 27 3d 97 6b ab 3d
       0.088691115 0.008326911 0.040951088 0.083701305
0002d0 55 f2 68 bd 62 15 a1 3d 7f 97 09 3d 15 24 04 3d
       -0.05687173 0.078654066 0.033591744 0.032260973
0002e0 71 88 9b 3c 36 93 b4 bd 63 57 5c bd 47 4a 8a bd
       0.018985959 -0.08817141 -0.053794276 -0.067524485
0002f0 21 b0 7b bc be 17 8f 3d 80 4c 88 bd b5 51 cb 3c
       -0.015361817 0.0698695 -0.06655216 0.024819234
000300 5c 8f de 3d 35 1b dc 3d 36 14 a9 3d 0a 99 97 bd
       0.108671874 0.10747377 0.08255808 -0.07402237
000310 bb b3 b5 3d ff 38 7c bb 14 3f 7f bd cc 93 d6 bc
       0.088721715 -0.003848612 -0.062316015 -0.026193522
000320 ed 02 bc 3d e7 77 c1 3d e7 6c 37 bc db 70 92 3c
       0.091802455 0.09446698 -0.011195398 0.01787608
000330 be 49 45 bd b1 c9 a5 3c 76 62 91 bd f6 28 5b 3c
       -0.04816603 0.020237776 -0.07098858 0.013376465
000340 9e 46 68 bd d7 c8 2c bd bf ed a0 bd 4e f8 a4 3d
       -0.05670797 -0.042183723 -0.078578465 0.08055173
000350 93 a7 8b bc 44 eb cb 3d cb 3a f5 3c 61 93 90 3d
       -0.017047679 0.09956983 0.029935261 0.0705936
000360 2a a8 24 3d ef 9d 63 3d dd da 04 3d 38 52 cd 3d
       0.040199436 0.05557054 0.032435287 0.100254476
000370 bc d4 51 3c 6a 20 59 3c 8e c5 0a 3d 9e 1c 90 bd
       0.0128070675 0.013252357 0.03387981 -0.07036708
000380 fa 1b 2e bd 90 78 19 bd 88 00 f7 bc 09 f0 19 3c
       -0.04250715 -0.037468493 -0.03015162 0.009395608
000390 a7 93 88 bd f7 6b ad bd 3d 2a 3f 3c 8c a9 e0 3b
       -0.066687874 -0.08467858 0.011667785 0.006856149
0003a0 20 65 73 3d c1 cf d4 3d f6 5d 81 bc de 7f 9a 3b
       0.059422612 0.103911884 -0.015791874 0.00471495
0003b0 53 44 ef 3c a1 25 74 3d c0 24 4e bd 0a 89 14 3c
       0.029207384 0.0596062 -0.050328016 0.009065876
0003c0 5b e9 d9 3d 8d f6 36 3d e3 8e 84 bc 1e ae e1 bc
       0.10640212 0.044668723 -0.016181415 -0.027548846
0003d0 04 eb 93 3d fc b1 1a bd a0 2b 41 3c b0 f9 94 3d
       0.0722256 -0.037767395 0.011790186 0.072741866
0003e0 ea 65 c4 3c f5 d6 ae bc 30 23 8a 3d 5f 90 ac bd
       0.023974378 -0.021342734 0.06744993 -0.08425974
0003f0 81 76 b0 3d 94 2c d4 bc f5 9c fb bc 2d b7 dd 3d
       0.08616353 -0.025900163 -0.030714491 0.10825954

decoder.2.weight f4 [229, 256]
000000 2b db 96 3c 9b ee 95 bc e6 30 36 3d 23 a6 81 3c
       0.018415054 -0.018302253 0.044480227 0.01582629
000010 69 bf 04 3d 3e b0 4c 3d ba cd a5 bc 18 d9 47 bb
       0.032409105 0.049972765 -0.0202397 -0.0030494388
000020 35 d9 24 bc 94 5f 0b bd 72 0f 06 bd 33 92 62 bc
       -0.010061552 -0.034026697 -0.032729574 -0.013828802
000030 7c 2d 5a bd 8e 10 91 bd ca e5 47 3d 9e c9 f4 bc
       -0.053266034 -0.07083236 0.04880313 -0.029881295
000040 28 db 46 3c d6 7f 4b 3d 97 ad e9 bb b3 4d fd 3c
       0.012137212 0.04968246 -0.007131289 0.030920839
000050 54 2c ba 3c be 41 71 3d 9f 20 3d 3d a2 39 3e 3d
       0.022726215 0.058900587 0.046173688 0.04644168
000060 29 0a 6e bd c9 f0 98 bc 29 b3 fc 3c 2b 1c 26 3d
       -0.05811516 -0.018669503 0.030847149 0.040554207
000070 e6 58 7b bc c4 a5 92 3c bf ad 68 bd 50 a9 6d bd
       -0.015341019 0.017901309 -0.056806322 -0.058022797
000080 58 18 c0 bc ba ef 86 bd cb 3a 15 3d 87 08 aa 3a
       -0.023449108 -0.06588693 0.036433022 0.0012972512
000090 32 af 6c bc 5b dd 02 bc 5f c4 33 bd 3e 53 49 bd
       -0.014446067 -0.007987346 -0.043888446 -0.04915165
0000a0 3b 5a 4b 3d da 57 1d bd 19 9b 2c 3d e8 84 06 bd
       0.049646597 -0.03841386 0.0421401 -0.032841593
0000b0 6a 9a 23 bd ad 70 68 bd a1 56 4d bc 92 3b 8f 3a
       -0.039942183 -0.05674808 -0.012532861 0.0010927788
0000c0 97 1f 65 3c b8 5e 7a bc b1 37 3b bc f9 a0 27 3d
       0.013984582 -0.015281372 -0.011426852 0.040925
0000d0 50 ff b6 bc 57 a4 89 bd fe 4e 22 3d 63 8a 10 bd
       -0.02233854 -0.067207985 0.039626114 -0.035288226
0000e0 4a 01 50 3d e6 03 3a 3d f1 60 77 bc db ec 91 bd
       0.05078248 0.045413874 -0.015098796 -0.07125255
0000f0 1b c2 4d bc 99 18 1f 3d a1 c9 05 bd 94 10 ef 3c
       -0.012558485 0.038841818 -0.03266299 0.02918271
000100 65 00 4d bd af 35 4a 3b e8 e6 5f 38 8f ad 58 bc
       -0.050049204 0.0030854752 5.338239e-05 -0.013224973
000110 02 d1 88 bd c7 63 34 3d 7a 58 8e 3b 3c 5f 26 3d
       -0.0668049 0.044040468 0.0043440433 0.040618166
000120 1c 66 f0 bc 55 2e 91 bb 25 1e 2a 3d dd 48 2f bd
       -0.029345565 -0.004430572 0.041532654 -0.042794097
000130 e3 75 18 3d 89 b6 38 bd 58 d7 cb bc 61 d5 ee bc
       0.0372218 -0.045095954 -0.024882957 -0.029154481
000140 18 96 42 3d cf 5a 07 bc da 1a 43 bd 22 29 8c bd
       0.04750642 -0.008261397 -0.04763303 -0.06843783
000150 83 09 07 3d 0e f5 5b 3d 7c 1e 9b bb 40 d6 3a bd
       0.032968055 0.0537005 -0.0047338586 -0.04561448
000160 72 e1 f5 bc 72 cf 47 bd 8b c5 4d 3c 94 f1 39 bc
       -0.030014727 -0.04878182 0.012559305 -0.011349101
000170 e8 28 fe bb 2e 49 4b 3d 9a ce 14 bd de ab 4a bd
       -0.0077563412 0.049630336 -0.036329843 -0.04948031
000180 4c af fb bb e5 f7 5e 3a b4 63 d9 3c bf b4 fc bc
       -0.007680809 0.0008505567 0.0265368 -0.030847905
000190 ea 5a 2a 3d a4 6d 97 bd f6 92 28 3c 11 d8 08 3c
       0.04159061 -0.07393959 0.0102889445 0.0083522955
0001a0 88 0b b0 3b a8 b6 38 bd f3 c8 82 bd 5d a9 97 3c
       0.0053724684 -0.04509607 -0.06385984 0.018513376
0001b0 9b 16 bb 3c c8 bc da 3c a9 34 c8 bc 9f a3 60 bd
       0.022837928 0.026701346 -0.024439173 -0.05484354
0001c0 dd 7b 23 3d 3c 95 ee bc d2 9e 8a bd 4b c3 6c 3b
       0.039913047 -0.029123895 -0.06768574 0.0036127146
0001d0 c0 12 7e 3c 4f ba 59 3c fd b0 40 3a 83 c5 d6 bc
       0.0155074 0.013289048 0.0007350592 -0.026217228
0001e0 d0 8e cc bb 12 78 41 bd d2 22 44 bd dc b6 3e bd
       -0.0062426105 -0.04723365 -0.04788477 -0.046561107
0001f0 8f 4c 55 bd 5b 08 5c 3d 2c c6 75 bd dc 85 72 bd
       -0.052074965 0.053718906 -0.060003445 -0.05920969
000200 76 d1 ba 3c 6d 62 0f bd 55 44 27 bd 58 30 1f 3c
       0.022804957 -0.035005976 -0.04083665 0.009716116
000210 72 1b 21 3d b8 7b 82 bd 57 f7 84 3c 0f 0e 11 3d
       0.039332815 -0.06371254 0.016231222 0.035413798
000220 70 00 9a bb df 8a 8e 3b f0 b1 12 bd ec 3a 27 3d
       -0.004699759 0.004350051 -0.035814226 0.040827677
000230 f1 b6 e8 bb 19 c0 4f 3c 57 4a 16 bd 2c f9 f0 3b
       -0.0071018864 0.012680077 -0.03669199 0.0073539224
000240 33 ba f8 3c 69 82 fc 3c 00 07 51 bd 6e 70 bc 3b
       0.030362224 0.030823903 -0.051032066 0.0057507074
000250 73 a2 21 bc 47 e0 23 bd 1b c7 bf bc cc 0c 87 bd
       -0.009865391 -0.04000881 -0.02341037 -0.06594238
000260 57 93 83 bc 31 70 14 3c 56 0f 35 3b ac 67 8e 3c
       -0.016061468 0.009059952 0.002762755 0.017383419
000270 a9 9d 85 bd 1a 0e f0 bc a4 0b 93 bd 22 0c 69 3c
       -0.06524212 -0.0293036 -0.07179955 0.014224084
000280 0e 2a 5c 3d 98 57 52 bd 01 11 0c bd 69 38 00 bd
       0.053751044 -0.051353067 -0.034195904 -0.031303797
000290 40 83 c6 3a df 0b e3 bc 17 e4 84 bd 93 40 27 3d
       0.0015145317 -0.027715622 -0.06488817 0.040833067
0002a0 e9 3a d8 3c 79 82 6c bd 9c 61 30 3d 47 ab 7c bd
       0.026395278 -0.057741616 0.043061838 -0.06168678
0002b0 6b bb 23 3d 0c b0 09 3d 9b b1 f0 bc 84 ab 30 bd
       0.039973658 0.033615157 -0.029381564 -0.04313232
0002c0 0f 1e 0f bd 43 17 03 bb cb e9 de bc 20 84 11 3a
       -0.034940775 -0.0020002879 -0.02721109 0.0005550999
0002d0 d1 02 3f 3d 84 8d 24 bd 5a ec f4 3c b3 66 2d 3c
       0.046633545 -0.040174022 0.029897857 0.010583567
0002e0 ba 13 5e bc 44 5c cf 3c 5c 74 10 3d 28 45 76 bc
       -0.013554508 0.02531255 0.03526722 -0.015031137
0002f0 35 75 5d 3d 71 bb 97 bd 2d 74 86 bc 7a 2f 8b bd
       0.054066855 -0.074087985 -0.016412819 -0.06796165
000300 a3 06 82 bd ba dd 8e 3b 9f 22 e4 3c 6d f9 9f 3c
       -0.06348922 0.004359928 0.02784854 0.019528115
000310 63 a7 09 3d 70 3e 9d 3c 82 4b 3f bd 2c 5f 05 3d
       0.033606898 0.019194812 -0.04670287 0.032561466
000320 06 93 7a 3c 59 87 e5 bc 76 7c 42 bd 58 67 c7 bc
       0.015293842 -0.02801864 -0.047481976 -0.02434127
000330 40 d9 38 bb a6 5c 89 bd 04 1b 69 3d 9d 95 19 3d
       -0.0028205663 -0.067071244 0.05691053 0.037496198
000340 8a 26 a7 3c 2f 5b 55 bd d8 a6 2a 3d 2c e7 ba 3c
       0.020404119 -0.052088913 0.04166302 0.02281531
000350 cd 00 7c bc 83 3a 4b 3d 17 a6 77 bd ac 17 42 3d
       -0.01538105 0.049616348 -0.06046113 0.047385857
000360 40 e8 30 bd e6 01 1d bc e2 99 b8 bc 55 fe 8d bd
       -0.04319024 -0.009582972 -0.022534315 -0.069332756
000370 e1 a4 77 3d e6 87 16 bd e8 88 3c 3d 13 f1 61 3d
       0.060459975 -0.036750697 0.046029 0.055161547
000380 90 44 05 3d b1 66 fc 3c 5e 7b c0 3c 80 86 6f bc
       0.03253609 0.030810686 0.023496326 -0.01461947
000390 c4 a1 9d bc 9e e3 39 3d 24 3c 06 3d ce 37 23 3d
       -0.019242175 0.04538309 0.0327722 0.03984814
0003a0 b9 f1 8b 3c 2b ca 96 bd c8 cc 56 bd 37 af 24 3d
       0.017083036 -0.07362779 -0.05244139 0.04020616
0003b0 8d 23 30 bd c1 ef 84 bd 98 4a 2e 3c 24 59 64 bd
       -0.043002654 -0.06491042 0.010637902 -0.055749074
0003c0 a3 96 49 bd f2 0e 1d bd bc 99 5d 3d d3 90 ad 3c
       -0.049215924 -0.03834433 0.05410169 0.021187222
0003d0 21 7f b2 3c 99 3d a7 bc d7 9c 5e 3c cd dc be 3c
       0.021789135 -0.020415114 0.013587198 0.023298645
0003e0 b7 70 e8 3a e8 ff ea 39 a0 fd 36 bd 97 93 4f bd
       0.0017733787 0.00044822623 -0.04467547 -0.050677862
0003f0 0a be 1b bd 9f f1 bf bb 64 09 e3 3c 78 54 3a bd
       -0.038023032 -0.005857661 0.027714439 -0.045490712
