recipe_model.pth (torch, 389116 bytes, 8 tensors)

encoder.0.weight f4 [256, 59]
0.08550707 0.10294996 -0.051552955 0.011142148 0.095643595 -0.020816356 -0.0019130147 0.1441153
-0.11690043 -0.04135775 -0.25158995 0.060246453 -0.04989973 -0.08943158 0.251654 -0.13169077
0.031855226 -0.2583302 0.17276463 -0.13636738 -0.12610735 0.049393892 0.018190695 -0.0014957912
-0.096034415 -0.01026161 0.1032342 -0.048814896 0.11231308 0.15323037 -0.19020899 -0.012623499
-0.1614613 -0.08165822 -0.08034815 -0.020700298 -0.07430568 0.04908011 0.02367547 -0.14823124
-0.24126442 -0.012130442 -0.2197578 -0.019956896 -0.05289139 0.07937643 -0.13805585 -0.024246627
-0.121474184 -0.08658481 0.10542246 -0.050890766 -0.067302495 -0.17967583 0.12931772 0.080715135
-0.13012363 -0.066369966 0.05766549 -0.07957955 0.038433872 0.048505917 -0.14574313 -0.093424134
-0.17063798 -0.22068247 0.035882454 0.03853266 -0.047400218 -0.036073606 0.0946474 0.05197552
-0.028165493 0.27734968 -0.19396332 -0.19032772 0.031002015 0.035355028 -0.24821539 0.04838993
0.03542667 0.15248397 -0.16824514 0.06088195 -0.068289876 -0.106069 -0.033368852 0.017993646
0.088279165 -0.18216367 0.090739734 -0.1106896 -0.09157391 0.078903906 -0.0067549637 0.021110807
0.031759053 -0.031030089 0.15068497 -0.06283589 -0.040645577 -0.06857446 -0.17732847 0.09950732
0.07273687 -0.11368177 -0.23003592 0.111761145 0.103910886 -0.0697256 -0.074347086 -0.18653883
-0.08724899 0.16187365 -0.1327237 0.16270164 -0.18517354 -0.036913306 0.08422439 -0.083406255
-0.069987394 -0.10797272 0.032188162 0.1904531 0.22534369 0.1450098 -0.116031796 0.019701023
-0.0753241 0.04610609 -0.06811873 -0.0017623698 0.17275673 -0.19243261 -0.07031194 -0.004685596
0.019876393 0.10210037 0.10939741 -0.027632656 -0.058828022 -0.06428591 0.07886861 -0.026401693
0.1101815 0.19533826 0.15672779 0.09829743 -0.026675327 0.12929066 -0.05221474 -0.16377324
0.02095059 0.099109456 0.058217924 0.13115162 -0.1992397 -0.25747508 0.003547313 0.15013877
-0.22882578 -0.0367206 0.025441054 -0.08197037 0.11449172 0.11938153 -0.008064991 -0.098316036
-0.046288535 0.01458444 0.016887816 0.069235675 -0.18994853 0.040889293 -0.13101807 0.12383139
-0.06544273 0.11293429 0.0053305314 -0.1864295 0.020369627 0.054436225 0.11160062 0.26041636
0.1535644 -0.2729501 0.12367352 -0.23678273 0.0015276353 0.023103166 -0.038712036 -0.1154942
0.13686533 -0.14574262 0.10467626 -0.033996355 0.21005742 0.025990091 0.094606996 -0.028257474
-0.103291444 0.1871584 0.14596845 0.14985743 0.2628188 0.092769474 0.0646222 -0.2750869
0.10957224 -0.21730284 0.21987356 0.039758455 0.05408491 -0.19584815 -0.017199688 -0.05107618
-0.27001023 0.14444326 0.15581888 -0.22947627 0.22497907 -0.08269134 -0.15595724 0.054121878
0.24286608 -0.13913563 0.06389981 -0.16130525 0.18312836 -0.015065579 0.03153785 -0.2890838
-0.15991053 0.10933634 -0.101513445 0.03685983 0.036479395 0.03257621 -0.06651214 -0.066935055
0.12283639 0.106290646 -0.027199438 -0.014073987 0.07739087 -0.03611062 0.09646333 -0.02016451
-0.05192827 -0.007002096 -0.2518075 -0.18289128 -0.21872248 0.17670713 -0.08207312 0.057160616
00000000: 551e af3d 6ed7 d23d 3129 53bd 8e8d 363c
00000010: cae0 c33d 1087 aabc 1fbe faba f692 133e
00000020: 7e69 efbd be66 29bd 66d0 80be fcc4 763d
00000030: a963 4cbd e727 b7bd cbd8 803e f2d9 06be
00000040: a07a 023d db43 84be 36e9 303e e4a3 0bbe
00000050: 4922 01be 4051 4a3d a704 953c 6d0e c4ba
00000060: b1ad c4bd 5020 28bc 746c d33d 21f2 47bd
00000070: 6604 e63d 6ce8 1c3e 25c6 42be cbd2 4ebc
00000080: 1c56 25be 6d3c a7bd 928d a4bd ac93 a9bc
00000090: 942d 98bd 3a08 493d 0ff3 c13c eec9 17be
000000a0: 050e 77be c3be 46bc 3008 61be a57c a3bc
000000b0: a4a4 58bd 1c90 a23d 835e 0dbe dda0 c6bc
000000c0: 75c7 f8bd 6053 b1bd bbe7 d73d d672 50bd
000000d0: e4d5 89bd f1fc 37be dd6b 043e fa4d a53d
000000e0: 213f 05be faec 87bd a632 6c3d 9afa a2bd
000000f0: d66c 1d3d 24ae 463d b03d 15be 2755 bfbd
00000100: b9bb 2ebe 96fa 61be 7bf9 123d 6cd4 1d3d
00000110: bb26 42bd ebc1 13bd 7fd6 c13d 48e4 543d
00000120: 52bb e6bc c700 8e3e 529e 46be 45e5 42be
00000130: f0f7 fd3c 6fd0 103d 2d2c 7ebe 8534 463d
00000140: 8e1b 113d c224 1c3e 7448 2cbe 5a5f 793d
00000150: 90db 8bbd b43a d9bd c7ad 08bd 6967 933c
00000160: b5cb b43d 1d89 3abe c1d5 b93d 3bb1 e2bd
00000170: 1a8b bbbd 5f98 a13d be58 ddbb 92f0 ac3c
00000180: c815 023d d032 febc 294d 1a3e 1ab0 80bd
00000190: fa7b 26bd c470 8cbd 9895 35be 7eca cb3d
000001a0: 11f7 943d fdd1 e8bd 898e 6bbe 07e3 e43d
000001b0: 3bcf d43d 4ccc 8ebd 4943 98bd 0904 3fbe
000001c0: 99af b2bd 35c2 253e b9e8 07be 429b 263e
000001d0: 229e 3dbe 6832 17bd d67d ac3d e6d0 aabd
000001e0: 8d55 8fbd cd20 ddbd bcd7 033d 2306 433e
000001f0: 7fc0 663e 737d 143e 14a2 edbd 0a64 a13c
00000200: 8643 9abd bdd9 3c3d d581 8bbd 51ff e6ba
00000210: 24e7 303e 0e0d 45be b5ff 8fbd a189 99bb
00000220: d1d3 a23c 001a d13d c00b e03d e15d e2bc
00000230: a7f5 70bd 55a8 83bd de85 a13d 5d48 d8bc
00000240: d7a6 e13d c106 483e 407d 203e 2a50 c93d
00000250: 3786 dabc c564 043e 20df 55bd 2cb4 27be
00000260: 92a0 ab3c e6f9 ca3d eb75 6e3d 9c4c 063e
00000270: 7e05 4cbe c6d3 83be 097a 683b fabd 193e
00000280: 4e51 6abe 5768 16bd c269 d03c 15e0 a7bd
00000290: a37a ea3d 4e7e f43d 0623 04bc eb59 c9bd
000002a0: 0c99 3dbd 93f3 6e3c 5158 8a3c 6fcb 8d3d
000002b0: de81 42be 887b 273d 9a29 06be 509b fd3d
000002c0: d706 86bd 184a e73d bdab ae3b 60e7 3ebe
000002d0: 34de a63c 85f8 5e3d de8e e43d 4b55 853e
000002e0: fc3f 1d3e 1ec0 8bbe 8b48 fd3d 2c77 72be
000002f0: ef3a c83a da42 bd3c 8390 1ebd 3988 ecbd
00000300: 6d26 0c3e 8e3d 15be 8260 d63d c33f 0bbd
00000310: 4b19 573e 2ce9 d43c 50c1 c13d 387c e7bc
00000320: 778a d3bd 74a6 3f3e c178 153e 3a74 193e
00000330: 3090 863e ecfd bd3d a558 843d 31d8 8cbe
00000340: 6967 e03d a384 5ebe 8926 613e c3d9 223d
00000350: 2388 5d3d 6b8c 48be 5ce6 8cbc 4235 51bd
00000360: c83e 8abe efe8 133e fc8e 1f3e d4fb 6abe
00000370: ea60 663e 145a a9bd 41b3 1fbe e7ae 5d3d
00000380: e3b1 783e 9279 0ebe e7dd 823d 342d 25be
00000390: 0086 3b3e 9ed5 76bc d52d 013d cb02 94be
000003a0: 96bf 23be bbeb df3d 48e6 cfbd 55fa 163d
000003b0: 6b6b 153d a26e 053d 8437 88bd 3f15 89bd
000003c0: a591 fb3d e9ae d93d 5bd1 debc 9496 66bc
000003d0: 1b7f 9e3d bbe8 13bd 918e c53d 0b30 a5bc
000003e0: bdb2 54bd d771 e5bb eaec 80be da47 3bbe
000003f0: c9f8 5fbe b7f2 343e f415 a8bd 4021 6a3d

encoder.0.bias f4 [256]
0.13543168 0.12080773 -0.09215893 -0.061186586 -0.0045658424 -0.10128863 0.023563163 0.12572916
-0.062275454 0.011454815 -0.10272494 -0.021285001 -0.08994376 0.09494985 0.024421327 0.014744984
0.076914646 0.09979779 0.09722609 0.050517134 -0.015778493 -0.12393024 0.089273416 0.08907902
-0.12979007 0.15793948 -0.015244647 -0.038034078 0.07658985 -0.000375729 -0.115765065 -0.056348052
0.042723898 0.011718293 -0.115502134 -0.060975056 0.06500966 -0.0389567 -0.104063176 0.043812454
-0.100044414 -0.09597199 0.002791473 0.15325609 0.11596453 -0.08269649 0.13255532 -0.09549391
-0.12420748 -0.05878836 0.03692591 -0.027011545 -0.08954765 -0.02458535 0.044256736 -0.088596046
0.022599969 -0.06661516 -0.061041713 -0.04599989 -0.07986695 -0.028649041 -0.050766934 -0.03097816
-0.07635713 0.11283865 -0.111557476 -0.029394051 -0.10735473 -0.076148964 0.04879738 0.05803011
0.06815733 0.051176235 0.0683613 -0.09130627 0.0198105 0.059676584 0.069382556 0.039768573
-0.09310536 0.0134168165 -0.08665183 -0.08368316 0.03277536 -0.08002295 -0.07113836 0.1211155
-0.074719384 0.014924384 0.16993473 -0.05317274 -0.032951944 -0.062218476 -0.016086351 0.13490368
-0.08280699 0.06929096 0.07692874 0.09292282 -0.05718364 0.0042018415 -0.12705356 0.07056673
-0.09476203 -0.034721084 0.09038117 0.11995648 -0.015538408 0.08907291 0.004314366 0.018770572
0.10705927 -0.08996357 -0.085075915 -0.00792933 -0.1231748 -0.08946158 0.031740144 0.132642
0.017229723 0.036088284 0.10346537 0.10791114 0.105249576 0.10534467 0.09354564 0.032509092
0.16691388 0.006460253 0.050011527 0.07579981 0.14299136 -0.020053249 -0.040064782 0.029028555
-0.03938033 0.08985065 0.040380634 0.014365716 0.0017681213 0.05841129 0.1058505 0.11050211
0.041823637 0.070087746 -0.110682674 -0.0803383 0.053800993 -0.025416799 0.013337915 0.12047874
-0.07744878 0.14460959 0.108079344 0.059410404 0.10597483 -0.05408526 0.061891932 0.084590346
0.050120845 -0.070203744 0.13379608 -0.046379805 0.09449687 0.018796299 0.052244514 0.053387728
0.047721073 -0.0048636827 0.16336587 -0.049962156 -0.0054926844 -0.0761756 -0.007983209 0.10885937
0.09151459 0.049124695 -0.0028690547 -0.01785904 0.14511569 -0.06749621 0.005302229 -0.027271617
-0.09221951 -0.03968527 0.02148711 0.11488783 0.11574006 0.0882546 0.08452428 0.08637801
0.09784084 0.028960805 0.052372817 -0.008251487 0.10530654 0.015955037 0.049597617 0.11841787
0.094367966 -0.020644125 0.13795988 0.07797201 0.0974286 0.1118164 -0.01353283 0.046740774
-0.12314989 0.08432265 0.107595794 0.12604408 -0.0014856404 0.16845593 0.081451565 0.05919139
0.101558656 0.086989835 0.0594982 -0.013742936 0.023474082 -0.027962375 0.02943038 0.01924
-0.015923586 0.10350932 0.0038215606 -0.05655662 -0.097358346 0.12681231 0.06218534 0.049267694
-0.08962476 0.1720769 0.08500586 -0.044539522 -0.005385951 0.06073593 0.01411972 0.047859706
-0.056199517 0.06945745 0.08837871 0.00551976 0.012266474 -0.026863724 -0.08282697 -0.06152745
-0.033499904 0.033771627 0.099817015 -0.078763224 0.014314068 0.07654136 0.12851927 -0.09557478
00000000: 9aae 0a3e 0b6a f73d d2bd bcbd c99e 7abd
00000010: 109d 95bb 6a70 cfbd 8907 c13c 25bf 003e
00000020: 8c14 7fbd faac 3b3c 7461 d2bd e25d aebc
00000030: 6f34 b8bd 1175 c23d 3c0f c83c f294 713c
00000040: 6d85 9d3d c962 cc3d 791e c73d 0eeb 4e3d
00000050: e641 81bc 23cf fdbd fbd4 b63d 106f b63d
00000060: b0e7 04be e3ba 213e afc4 79bc 9fc9 1bbd
00000070: 24db 9c3d 7efd c4b9 3c16 edbd 37cd 66bd
00000080: 41ff 2e3d 15fe 3f3c 628c ecbd fbc0 79bd
00000090: c923 853d 1091 1fbd 131f d5bd b074 333d
000000a0: 16e4 ccbd f68c c4bd 25f1 363b 2aef 1c3e
000000b0: d07e ed3d c75c a9bd 95bc 073e 5092 c3bd
000000c0: 7e60 febd 10cc 70bd 9f3f 173d 5147 ddbc
000000d0: c264 b7bd 3767 c9bc 8d46 353d d871 b5bd
000000e0: 9223 b93c 876d 88bd e006 7abd 616a 3cbd
000000f0: 4991 a3bd 65b1 eabc fdf0 4fbd e9c5 fdbc
00000100: 2161 9cbd f317 e73d 3f78 e4bd cbcb f0bc
00000110: ccdc dbbd fdf3 9bbd c3df 473d fbb0 6d3d
00000120: 1296 8b3d 2c9e 513d 0201 8c3d c8fe babd
00000130: a149 a23c 6f6f 743d 7118 8e3d 5fe4 223d
00000140: 06ae bebd 35d2 5b3c 8476 b1bd 1462 abbd
00000150: 753f 063d 13e3 a3bd fdb0 91bd 670b f83d
00000160: 7a06 99bd 6785 743c 5f03 2e3e a9cb 59bd
00000170: 9ef8 06bd cdd8 7ebd 86c7 83bc 3124 0a3e
00000180: b696 a9bd 6be8 8d3d d18c 9d3d 524e be3d
00000190: 6439 6abd 9aaf 893b 541a 02be 4a85 903d
000001a0: 9812 c2bd b237 0ebd c319 b93d beab f53d
000001b0: cf94 7ebc dc6b b63d 865f 8d3b bec4 993c
000001c0: e441 db3d d23e b8bd 483c aebd 05ea 01bc
000001d0: 1243 fcbd a237 b7bd f401 023d 4ed3 073e
000001e0: 5925 8d3c 4fd1 133d a7e5 d33d 8400 dd3d
000001f0: 178d d73d f2be d73d db94 bf3d 4128 053d
00000200: 79eb 2a3e 88b0 d33b e3d8 4c3d ee3c 9b3d
00000210: 546c 123e b646 a4bc f81a 24bd 4bcd ed3c
00000220: 454d 21bd 9e03 b83d 2a66 253d 2e5e 6b3c
00000230: 4ec0 e73a ad40 6f3d 26c8 d83d ee4e e23d
00000240: 434f 2b3d 2a8a 8f3d 99ad e2bd 6888 a4bd
00000250: 6e5e 5c3d e436 d0bc 4587 5a3c 8fbd f63d
00000260: 779d 9ebd 8914 143e b458 dd3d 5358 733d
00000270: 5509 d93d 8188 5dbd 6582 7d3d b43d ad3d
00000280: 844b 4d3d fbc6 8fbd d701 093e c0f8 3dbd
00000290: 9387 c13d b2fa 993c 58fe 553d 17ad 5a3d
000002a0: 2c77 433d 875f 9fbb 6249 273e 1ea5 4cbd
000002b0: fafb b3bb f401 9cbd 01cc 02bc a9f1 de3d
000002c0: 006c bb3d fa36 493d c006 3cbb 1f4d 92bc
000002d0: 3599 143e 743b 8abd 52be ad3b ba68 dfbc
000002e0: 95dd bcbd 068d 22bd bc05 b03c 504a eb3d
000002f0: 2009 ed3d d4be b43d 111b ad3d f4e6 b03d
00000300: c760 c83d 363f ed3c e184 563d 3f31 07bc
00000310: f5aa d73d 23b4 823c df26 4b3d 1185 f23d
00000320: fe43 c13d de1d a9bc 5b45 0d3e caaf 9f3d
00000330: a588 c73d ffff e43d ceb8 5dbc 4173 3f3d
00000340: 0236 fcbd 5bb1 ac3d 2f5b dc3d b311 013e
00000350: d2b9 c2ba b67f 2c3e 14d0 a63d ac72 723d
00000360: fcfd cf3d ba27 b23d 62b4 733d 0d2a 61bc
00000370: b84c c03c 5a11 e5bc fb17 f13c 349d 9d3c
00000380: 2e72 82bc b2fc d33d 2673 7a3b eaa7 67bd
00000390: d063 c7bd 16db 013e 0eb6 7e3d eccc 493d
000003a0: 308d b7bd ed34 303e 8d17 ae3d 136f 36bd
000003b0: a27c b0bb 3dc6 783d 6656 673c 8a08 443d
000003c0: 7731 66bd b53f 8e3d e6ff b43d 1adf b43b
000003d0: 52f9 483c 5011 dcbc 30a1 a9bd 3504 7cbd
000003e0: 3237 09bd 1e54 0a3d dd6c cc3d 9d4e a1bd
000003f0: 8d85 6a3c b7c1 9c3d 8e9a 033e b6bc c3bd

encoder.2.weight f4 [128, 256]
0.06764359 -0.012193817 -0.053433023 0.028371235 -0.042063463 -0.10426255 -0.023840299 0.046878938
-0.020517312 -0.043166675 0.01709089 -0.044925414 0.03580705 0.040131547 -0.044605847 -0.117140874
-0.016740391 -0.025915785 0.04421184 0.04667022 -0.0031510117 0.058079954 0.15350059 -0.12694536
-0.016279668 -0.1870788 -0.015038466 -0.039764553 0.0036102303 0.024956932 -0.0036678868 -0.044633824
-0.019571124 0.06484488 0.006233789 0.032207683 -0.15535106 0.09938646 0.027034175 -0.010146193
-0.04980272 0.04478365 -0.015945958 -0.086991414 0.03704825 0.025626974 0.001988256 0.16429326
0.023549765 -0.05072578 0.0274462 -0.09936983 0.05459104 0.0013919797 0.01347413 0.19278017
0.032545965 -0.0021151109 0.05432308 -0.03202438 0.18142506 0.017847005 -0.039932955 -0.038801488
0.011643044 -0.025419245 0.009648536 -0.09805651 0.010993925 0.1331414 -0.07263646 0.051021762
0.008766494 0.0929196 -0.060389932 -0.018960996 0.01580992 0.008229381 0.010866292 -0.0084659755
-0.021253675 -0.0017529908 0.2219096 -0.0012687817 0.051459875 0.06943339 0.0051816497 0.042596396
0.11729381 -0.006400912 -0.007409375 0.04968972 -0.050408594 0.04049195 0.06624964 0.08334766
0.0048344187 0.04517142 0.12541947 0.03283249 -0.01773407 0.02222898 -0.061072238 -0.02484794
0.056857876 0.03063557 0.1050414 -0.0063835992 0.052754916 -0.21485642 -0.020304965 0.07954021
0.04703682 0.021592455 -0.055902626 -0.032229465 0.05623839 0.02456554 -0.013031896 0.013141478
-0.002680088 0.041311275 -0.040091157 0.104447626 -0.03486164 0.016007908 -0.067998886 0.08940771
0.106904715 0.09549734 0.10536153 0.032938883 -0.010678311 0.087096505 -0.14770061 0.22530088
0.1161308 0.10168091 0.12476379 -0.023450846 -0.097189404 0.052897573 0.026879583 -0.06201554
-0.035196055 0.065176435 -0.006717705 -0.022526337 0.15260094 0.08439542 0.03878293 -0.28791374
-0.03989034 -0.03277772 -0.05176418 -0.06859365 0.077052385 0.11557936 0.0947523 0.12425364
0.024378134 -0.034226142 0.069630906 0.076480664 -0.092498995 0.061813436 -0.16839811 -0.07968826
-0.039277464 -0.02653946 -0.23026426 0.039457124 -0.026994793 0.031509086 -0.020502694 -0.10890378
-0.07781619 0.1592055 -0.06657753 0.06024168 -0.16537523 -0.029883143 -0.013542348 -0.012448389
-0.08199437 0.04126574 0.0055842595 0.046870317 -0.124721885 0.05418067 -0.14135776 -0.052204065
0.046725605 0.15257125 -0.09168273 0.03880147 -0.13217352 0.027920082 -0.028971974 0.061771594
0.03966133 0.011307426 0.07849586 0.020763047 -0.048424944 0.001481377 0.017732784 -0.0410489
-0.027910301 -0.042160273 0.029863825 -0.009306582 0.06578361 0.05844792 -0.033436183 0.06751539
0.009644913 -0.112873115 -0.015963465 -0.008849822 0.053854346 -0.01958368 -0.07188645 -0.059912037
-0.08617281 -0.039809395 0.020344563 -0.021619298 0.08832932 0.042902738 -0.036247533 0.007797722
0.038527165 -0.128484 -0.01822734 -0.017656215 -0.002765691 -0.00015155072 0.113139525 -0.010467109
0.0074297073 0.07000795 0.078660004 -0.088883646 -0.021060087 -0.056547467 -0.008408588 -0.045995552
0.15168922 -0.053473163 -0.015096124 -0.023133695 -0.018293047 -0.26036492 0.06063846 -0.056607373
00000000: b988 8a3d 93c8 47bc 96dc 5abd cb6a e83c
00000010: bd4a 2cbd 9b87 d5bd bb4c c3bc 2104 403d
00000020: ec13 a8bc 8acf 30bd 3202 8c3c b603 38bd
00000030: 6aaa 123d fa60 243d 9fb4 36bd 8ee7 efbd
00000040: 2523 89bc 574d d4bc 7917 353d 4629 3f3d
00000050: 3481 4ebb 3fe5 6d3d 422f 1d3e f7fd 01be
00000060: f05c 85bc 9691 3fbe e663 76bc 28e0 22bd
00000070: 9d99 6c3b 7b72 cc3c ee60 70bb f5d1 36bd
00000080: 9f53 a0bc 64cd 843d d044 cc3b 34ec 033d
00000090: 5914 1fbe 218b cb3d c676 dd3c 383c 26bc
000000a0: f0fd 4bbd 106f 373d 19a1 82bc 8e28 b2bd
000000b0: e8bf 173d a9ef d13c 664d 023b 7e3c 283e
000000c0: 70eb c03c d6c5 4fbd dad6 e03c 6982 cbbd
000000d0: db9a 5f3d 1773 b63a 99c2 5c3c 2a68 453e
000000e0: eb4e 053d ac9d 0abb e181 5e3d ff2b 03bd
000000f0: 7ec7 393e e233 923c bd90 23bd 4fee 1ebd
00000100: 77c2 3e3c 053c d0bc e514 1e3c dad1 c8bd
00000110: dd1f 343c 3856 083e 6dc2 94bd 32fc 503d
00000120: 57a1 0f3c a24c be3d 6f5b 77bd 1754 9bbc
00000130: ce83 813c 87d4 063c 8808 323c e0b4 0abc
00000140: 301c aebc 9cc4 e5ba 453c 633e 404d a6ba
00000150: 97c7 523d 1833 8e3d d4ca a93b 8f79 2e3d
00000160: bd37 f03d bebe d1bb 58ca f2bb 7387 4b3d
00000170: 3e79 4ebd e3da 253d e4ad 873d 2eb2 aa3d
00000180: 0b6a 9e3b ab05 393d f66d 003e 5c7b 063d
00000190: 0a47 91bc 8d19 b63c e226 7abd e88d cbbc
000001a0: cee3 683d 72f7 fa3c f21f d73d 832d d1bb
000001b0: 8a15 583d 5203 5cbe 9956 a6bc fae5 a23d
000001c0: aea9 403d a9e2 b03c 27fa 64bd 0b03 04bd
000001d0: 3a5a 663d ac3d c93c bc83 55bc 5b4f 573c
000001e0: 6aa4 2fbb 0336 293d a036 24bd a3e8 d53d
000001f0: 14cb 0ebd 0423 833c 0043 8bbd 641b b73d
00000200: dcf0 da3d 1c94 c33d c9c7 d73d ecea 063d
00000210: 15f4 2ebc a75f b23d d43e 17be 46b5 663e
00000220: fcd5 ed3d 153e d03d 2884 ff3d fd1b c0bc
00000230: 3d0b c7bd 20ab 583d 9232 dc3c 0204 7ebd
00000240: bd29 10bd 397b 853d 3220 dcbb 2789 b8bc
00000250: 6c43 1c3e 82d7 ac3d d9da 1e3d 6e69 93be
00000260: 0e64 23bd ee41 06bd ad06 54bd d47a 8cbd
00000270: a4cd 9d3d dfb4 ec3d 7e0d c23d b178 fe3d
00000280: a7b4 c73c b630 0cbd a69a 8e3d e5a1 9c3d
00000290: 1d70 bdbd 1630 7d3d 8e70 2cbe 9933 a3bd
000002a0: 68e1 20bd 4869 d9bc 65ca 6bbe cb9d 213d
000002b0: 2f24 ddbc ac0f 013d 44f5 a7bc f208 dfbd
000002c0: 185e 9fbd c406 233e cd59 88bd fbbf 763d
000002d0: 2058 29be 7ecd f4bc b9e0 5dbc 54f4 4bbc
000002e0: aaec a7bd 4406 293d 2afc b63b 17fb 3f3d
000002f0: 306e ffbd 8dec 5d3d 17c0 10be eed3 55bd
00000300: 5963 3f3d a33b 1c3e 28c4 bbbd 4aee 1e3d
00000310: 7f58 07be a8b8 e43c a256 edbc 3604 7d3d
00000320: eb73 223d c842 393c 70c2 a03d 4417 aa3c
00000330: 3c59 46bd c42a c23a 5844 913c e422 28bd
00000340: 25a4 e4bc 40b0 2cbd fba4 f43c a27a 18bc
00000350: 8fb9 863d 1667 6f3d 61f4 08bd 8245 8a3d
00000360: b205 1e3c 052a e7bd d0c5 82bc d8fe 10bc
00000370: 6096 5c3d f46d a0bc 3439 93bd 5366 75bd
00000380: 5f7b b0bd 2d0f 23bd a4a9 a63c f41a b1bc
00000390: 01e6 b43d c8ba 2f3d 4b78 14bd 0884 ff3b
000003a0: a9ce 1d3d 4f91 03be 8151 95bc c4a3 90bc
000003b0: 9840 35bb 96e9 1eb9 b2b5 e73d 3d7e 2bbc
000003c0: e774 f33b 5460 8f3d 7f18 a13d a108 b6bd
000003d0: 3486 acbc 519e 67bd 2dc4 09bc d565 3cbd
000003e0: 6b54 1b3e ad06 5bbd bc55 77bc e082 bdbc
000003f0: 4ddb 95bc 8d4e 85be 0960 783d 22dd 67bd

encoder.2.bias f4 [128]
-0.013350922 -0.07114339 -0.033988144 0.014856341 0.04903636 -0.03135059 0.062013663 -0.052008994
-0.04299822 0.032802306 -0.0044493168 -0.070508376 0.0071067153 -0.024392525 0.06844822 -0.03189757
-0.026012398 -0.015342541 0.021250667 -0.037257645 0.003260039 0.012107454 0.044426493 0.024419667
-0.058960557 -0.055637024 -0.04679357 -0.056842327 0.025359143 0.028022263 0.028365599 -0.039035767
-0.0057673934 0.0048235804 0.0242289 -0.07721793 0.017135983 -0.029545981 0.010357134 -0.065477505
0.062520266 0.047155242 0.0612823 0.05486865 -0.019548612 0.070964515 -0.029305546 -0.011506491
-0.041929506 -0.00526864 0.057158813 -0.053768266 0.014262892 -0.020991534 0.021992011 0.050591573
0.025756653 -0.00469063 -0.00024192208 -0.03666564 -0.017701337 -0.06577878 -0.038009804 -0.012070083
-0.061190262 0.020486038 0.027710073 0.038144335 -0.06719889 0.016760223 0.030683842 -0.015610742
0.05511555 -0.006667706 0.005107142 -0.0047699865 -0.03683349 0.038609564 0.004390296 -0.013737633
-0.00079448917 0.0009606205 0.026032062 0.0059898947 -0.031198654 -0.054892883 0.016043305 -0.02575855
-0.060975358 -0.009674443 0.0060234484 0.038798753 0.04876067 -0.07958186 0.020711925 0.040384427
-0.0060100737 0.018897697 -0.02374996 -0.0709088 0.04473058 0.04215344 -0.043473013 0.0698354
0.0015704081 -0.07082801 0.009881863 0.004591502 -0.01611166 -0.00020782727 0.016052432 -0.041437536
-0.031917084 -0.06596131 -0.026381241 -0.0025181586 0.02189433 0.03907084 0.0071918997 -0.060577415
-0.060483284 0.040987205 0.048581276 0.008419198 -0.0024237828 0.01542049 0.050842684 0.00488478
00000000: d3bd 5abc a0b3 91bd 2737 0bbd 0368 733c
00000010: 5ada 483d 7a69 00bd 0a02 7e3d 6207 55bd
00000020: e71e 30bd b65b 063d 93cb 91bb b266 90bd
00000030: 73df e83b d5d2 c7bc 952e 8c3d 07a7 02bd
00000040: f417 d5bc 485f 7bbc e115 ae3c 799b 18bd
00000050: 61a6 553b 585e 463c 8ef8 353d c10b c83c
00000060: a080 71bd a6e3 63bd 9daa 3fbd 80d3 68bd
00000070: fabd cf3c f28e e53c f95e e83c f8e3 1fbd
00000080: 67fc bcbb 200f 9e3b b07b c63c 6f24 9ebd
00000090: c360 8c3c 6a0a f2bc f8b0 293c 1219 86bd
000000a0: a00a 803d db25 413d 2603 7b3d f3bd 603d
000000b0: 6924 a0bc d855 913d 2f12 f0bc b985 3cbc
000000c0: 46be 2bbd 8ea4 acbb 5c1f 6a3d 1d3c 5cbd
000000d0: e8ae 693c 70f6 abbc 9728 b43c 1c39 4f3d
000000e0: 9eff d23c dbb3 99bb 77ac 7db9 b62e 16bd
000000f0: 6502 91bc 06b7 86bd 2bb0 1bbd 99c1 45bc
00000100: a4a2 7abd 56d2 a73c 3c00 e33c 3c3d 1c3d
00000110: 929f 89bd bc4c 893c ae5c fb3c 33c4 7fbc
00000120: d8c0 613d c67c dabb d059 a73b 8c4d 9cbb
00000130: b7de 16bd 1025 1e3d 79dc 8f3b cf13 61bc
00000140: 4445 50ba 27d2 7b3a 3141 d53c e146 c43b
00000150: 5294 ffbc 5cd7 60bd 406d 833c 9803 d3bc
00000160: 4cc1 79bd 8e81 1ebc 5960 c53b 71eb 1e3d
00000170: 45b9 473d d0fb a2bd 0eac a93c 246a 253d
00000180: 27f0 c4bb 58cf 9a3c 478f c2bc a238 91bd
00000190: 6a37 373d 16a9 2c3d c210 32bd dd05 8f3d
000001a0: 27d6 cd3a 470e 91bd 8ae7 213c 4f74 963b
000001b0: 9afc 83bc 35ec 59b9 6480 833c 68ba 29bd
000001c0: 7dbb 02bd b916 87bd 791d d8bc b107 25bb
000001d0: bd5b b33c bf08 203d 07aa eb3b 0620 78bd
000001e0: 52bd 77bd 33e2 273d 29fd 463d adf0 093c
000001f0: 54d8 1ebb 39a6 7c3c 6b40 503d 8110 a03b

decoder.0.weight f4 [256, 128]
0.08086876 0.017345862 -0.059649244 -0.074492924 0.013389661 0.0124039855 0.037092056 0.13225923
0.000813949 0.057579625 -0.22056407 0.09480162 0.027164867 0.05451209 0.088128306 -0.0862729
0.02130161 -0.00015034305 0.08332213 -0.069020405 -0.13197199 -0.109251976 -0.03968389 -0.059411343
0.0017535677 0.061499726 -0.07818509 -0.031609867 -0.05919354 -0.1533175 -0.052801076 -0.016726427
-0.040252548 0.062271524 -0.045239486 -0.14068551 -0.05521144 -0.026085611 0.016914558 0.03964599
0.13817726 0.13178381 -0.12005982 -0.13578378 0.10714991 0.10481589 0.08451326 -0.131223
-0.04270236 -0.041196857 -0.023634775 0.068130255 -0.07952197 -0.05485143 0.058700435 0.029103827
0.03774162 -0.14351062 0.036231443 -0.05515169 -0.041298665 -0.08300652 0.20243332 0.1993816
0.021262987 -0.11857232 -0.16029245 -0.18727715 -0.01722217 -0.14860635 -0.073984824 -0.10705746
-0.099808425 -0.12933658 0.15499316 0.06888497 -0.045664586 0.109679945 -0.034342665 0.1038073
0.010465819 0.14390092 -0.0428946 -0.10415307 -0.22903077 -0.14798267 -0.0071035763 -0.06858256
0.041424654 0.2536075 0.09314713 -0.030692084 0.10061492 0.044185393 -0.08875941 9.4806455e-07
-0.08735137 0.030609256 -0.16519499 0.16466977 0.14307095 0.024829056 -0.14504464 -0.023649808
0.043331265 -0.095374316 -0.1672111 -0.16668364 0.061887845 -0.13442975 -0.09991686 0.019953212
0.123366795 0.020315208 -0.035603475 -0.03836369 0.046311174 -0.018392313 -0.15872833 -0.04513399
0.024957754 -0.15967669 0.0035316257 0.025050217 -0.047470734 -0.054643676 -0.07775343 -0.023161931
-0.074739315 -0.028985254 0.06683006 0.025420653 -0.00809806 0.0932231 -0.08071607 0.061407704
-0.006486092 0.06842782 0.027501909 0.030213613 -0.026733022 -0.04206357 -0.07347064 -0.055288017
0.016452195 -0.0063182935 0.0150892725 -0.032750297 0.032449648 -0.06788501 0.03497014 -0.06424383
0.009606594 -0.027160205 -0.016820116 -0.003690579 0.03600055 -0.08668331 -0.076793365 0.033460513
0.009760424 -0.019252207 -0.021060955 0.07118239 0.04420564 -0.013295992 -0.09502084 -0.09028702
-0.013525865 -0.07584076 0.0029774727 0.0150264995 0.07728778 0.043803252 0.042906646 -0.07477422
0.023023706 0.019915745 0.038872752 0.010006414 0.0209557 0.06332924 3.2602584e-05 -0.0034567981
0.010176782 -0.07249013 -0.080805086 0.027836611 -0.06690258 0.0015295886 0.02555546 -0.0045644804
0.061703663 0.02362422 0.066738404 0.01372771 -0.012412044 -0.027852798 0.07309236 0.01700073
-0.00047893432 0.064700805 -0.09381859 0.050178766 0.045821793 0.016841069 0.014875564 -0.059331764
-0.039929945 0.059361983 -0.07012375 0.06994028 -0.076271534 0.06904388 -0.10044252 0.028414696
-0.074664846 -0.04455315 -0.008954229 0.058697443 -0.046858683 -0.07638572 -0.028163722 0.09592581
0.038586874 0.07293081 0.032280803 -0.034251794 0.029725716 0.017338991 -0.048579182 -0.027561834
-0.052560676 0.061018527 0.050978582 -0.051253404 -0.09079887 0.00046966376 0.05457841 0.030084362
0.04765921 0.018239044 0.061334725 -0.07598902 -0.07833697 0.01911162 0.05068653 0.024831353
0.018254513 0.030657368 0.0455991 0.054504625 -0.07155331 0.036537748 -0.088917494 -0.01847779
00000000: 859e a53d e918 8e3c c452 74bd bf8f 98bd
00000010: 4f60 5b3c 163a 4b3c d7ed 173d f76e 073e
00000020: 315f 553a 9dd8 6b3d 8cdb 61be 5a27 c23d
00000030: db88 de3c 1248 5f3d 9d7c b43d d9af b0bd
00000040: b780 ae3c 68a5 1db9 cba4 aa3d 925a 8dbd
00000050: aa23 07be 80bf dfbd 938b 22bd 4f59 73bd
00000060: f8d7 e53a 23e7 7b3d 811f a0bd 5979 01bd
00000070: ed74 72bd 43ff 1cbe f145 58bd dc05 89bc
00000080: dbdf 24bd 6d10 7f3d 0a4d 39bd dd0f 10be
00000090: 6425 62bd 7eb1 d5bc 6690 8a3c d563 223d
000000a0: 577e 0d3e 56f2 063e ece1 f5bd e70a 0bbe
000000b0: 6971 db3d b7a9 d63d 4a15 ad3d 525f 06be
000000c0: abe8 2ebd 09be 28bd b79d c1bc e087 8b3d
000000d0: 6adc a2bd e5ab 60bd de6f 703d 266b ee3c
000000e0: f596 1a3d 73f4 12be 6c67 143d bde6 61bd
000000f0: ca28 29bd 53ff a9bd ae4a 4f3e b12a 4c3e
00000100: b72f ae3c 0bd6 f2bd b423 24be 95c5 3fbe
00000110: 8215 8dbc 432c 18be 5b85 97bd f140 dbbd
00000120: 5c68 ccbd cf70 04be 87b6 1e3e 9013 8d3d
00000130: ca0a 3bbd e19f e03d e5aa 0cbd ec98 d43d
00000140: d478 2b3c c35a 133e 40b2 2fbd 344e d5bd
00000150: 0b87 6abe c588 17be 1ec5 e8bb 0375 8cbd
00000160: e6ac 293d d8d8 813e ecc3 be3d f76d fbbc
00000170: 320f ce3d befb 343d 7ec7 b5bd 807e 7e35
00000180: 46e5 b2bd 43c0 fa3c e028 29be 319f 283e
00000190: 3181 123e 4e66 cb3c 9586 14be 3ebd c1bc
000001a0: 207c 313d 9c53 c3bd 6339 2bbe 1eaf 2abe
000001b0: 1c7e 7d3d f4a7 09be 36a1 ccbd eb74 a33c
000001c0: bba7 fc3d 146c a63c f3d4 11bd 3f23 1dbd
000001d0: c9b0 3d3d 7aab 96bc ae89 22be 6bde 38bd
000001e0: 3474 cc3c 4982 23be d972 673b 1d36 cd3c
000001f0: ac70 42bd 0cd2 5fbd 313d 9fbd 17be bdbc
00000200: ed10 99bd 7c72 edbc 33de 883d f93e d03c
00000210: baad 04bc c1eb be3d 784e a5bd a586 7b3d
00000220: 4989 d4bb e323 8c3d af4b e13c 8a82 f73c
00000230: 36ff dabc da4a 2cbd c677 96bd b075 62bd
00000240: c1c6 863c b009 cfbb ff38 773c 2d25 06bd
00000250: ece9 043d 4c07 8bbd d93c 0f3d 4592 83bd
00000260: fa64 1d3c 147f debc 57ca 89bc a4dd 71bb
00000270: 5075 133d 0587 b1bd d745 9dbd e40d 093d
00000280: 2fea 1f3c ceb6 9dbc 0688 acbc 13c8 913d
00000290: f910 353d 6fd7 59bc 499a c2bd 67e8 b8bd
000002a0: 979b 5dbc 6652 9bbd b421 433b b531 763c
000002b0: 0e49 9e3d 0a6b 333d e1be 2f3d 3a23 99bd
000002c0: 369c bc3c 5826 a33c 0939 1f3d f1f1 233c
000002d0: 4aab ab3c c3b2 813d c2be 0838 738b 62bb
000002e0: 84bc 263c b575 94bd 237d a5bd 9b09 e43c
000002f0: 3804 89bd 7a7c c83a af59 d13c a391 95bb
00000300: fbbc 7c3d 9587 c13c 25ae 883d 30ea 603c
00000310: e35b 4bbc 8d2b e4bc 72b1 953d 1d45 8b3c
00000320: 7a19 fbb9 db81 843d f623 c0bd 4088 4d3d
00000330: a2af 3b3d 48f6 893c a3b8 733c dd05 73bd
00000340: 958d 23bd 8d25 733d 0a9d 8fbd d93c 8f3d
00000350: 4034 9cbd e166 8d3d cfb4 cdbd f0c5 e83c
00000360: e2e9 98bd 5d7d 36bd c2b4 12bc bb6c 703d
00000370: e4ee 3fbd 1e70 9cbd 9bb7 e6bc c074 c43d
00000380: 450d 1e3d c05c 953d e038 043d 9c4b 0cbd
00000390: 5883 f33c 800a 8e3c f7fa 46bd 5bc9 e1bc
000003a0: dd49 57bd 90ee 793d ebce 503d 17ef 51bd
000003b0: c2f4 b9bd 343d f639 9c8d 5f3d 7b73 f63c
000003c0: 4e36 433d 0c6a 953c 1f3a 7b3d 22a0 9bbd
000003d0: 226f a0bd f98f 9c3c ae9c 4f3d 1f6b cb3c
000003e0: 7d8a 953c 2925 fb3c 1fc6 3a3d 3e40 5f3d
000003f0: 8b8a 92bd 9ba8 153d 601a b6bd bc5e 97bc

decoder.0.bias f4 [256]
0.06278794 -0.089051194 -0.101757094 -0.08408565 0.028088551 -0.010901358 0.026885604 -0.043196157
0.060260635 0.040142443 0.02452792 -0.043242685 0.023476848 0.031771258 0.0778476 -0.044792242
-0.04663305 -0.030188182 -0.036151405 -0.05830689 0.012246222 0.010833107 -0.050276473 0.064311765
0.07904875 0.027366832 0.011097907 0.011199561 -0.022794012 -0.015050807 0.054091148 0.093819164
0.056444712 -0.028032051 0.059087988 0.009410288 0.06735864 -0.04528236 -0.022799952 -0.07408287
-0.07718109 -0.0705667 -0.09921443 -0.011192954 -0.01262555 0.08911839 -0.11876951 0.033648267
-0.026146824 -0.028983746 0.03307963 -0.029596299 -0.101402506 -0.05511114 0.06436935 -0.018723678
-0.031516775 -0.06624182 0.096534066 -0.020483961 -0.0395406 -0.08956754 -0.021152524 0.05261856
0.0825111 -0.052468024 0.0690775 0.001246031 0.08219827 -0.08460618 -0.026087167 0.0037739729
0.10081071 -0.038328964 -0.023754874 -0.048061818 -0.023132889 -0.1200275 0.067735255 0.021169424
-0.002122194 -0.008562374 0.07379699 -0.021632586 -0.025042517 0.024833318 0.034922145 -0.007905446
-0.044871923 0.059006788 0.041900143 0.032724075 0.10698818 0.02510649 0.054463208 0.088431664
0.009222172 -0.03645104 0.033835717 -0.026884703 -0.026823403 0.07727974 0.03679715 -0.030270156
-0.06291522 -0.015903533 -0.015091898 -0.06615182 -0.0113698 -0.054844238 -0.0665926 0.10401043
-0.048639145 -0.034791347 -0.014993217 0.08171897 -0.03798008 -0.025316322 -0.0047554714 0.07383813
0.04458461 0.0203878 0.06532309 0.071170755 0.011206763 -0.084502205 0.089595884 -0.023208838
-0.045895766 0.033820238 -0.044957668 0.06547226 -0.04214936 0.104884766 -0.015732491 -0.064392395
0.071847916 0.07146975 0.023108482 0.06345383 -0.07155578 0.08200723 0.11622849 0.035844643
-0.07058458 -0.02448353 0.024974464 0.083075166 -0.0627163 -0.02351409 0.050767556 0.06358146
-0.008622241 0.055738725 0.0077090706 0.027432144 0.077374324 -0.050290477 0.065549046 0.0140120955
0.025960444 0.092582054 -0.049772058 -0.04979235 -0.055026352 -0.042881988 0.013127876 0.02319661
-0.08682139 0.06674372 -0.06774269 0.036382183 -0.0025606847 -0.010065661 -0.01264592 -0.038480163
-0.079348415 -0.06037195 -0.008751316 -0.052914273 0.003972773 -0.010617684 -0.029999731 0.04330183
0.088856354 -0.03883427 -0.045833394 -0.056875583 -0.075896166 0.06022007 0.046183307 -0.061472453
0.07775531 0.054431476 0.064642094 -0.026027514 0.08547656 0.0896613 0.083265774 0.026150715
0.016123522 0.017346038 -0.024011109 -0.07397841 0.092015885 0.04960935 0.011249371 -0.03212426
0.071913384 0.056475505 0.06974716 -0.04388929 -0.06574616 0.08407848 0.012676721 -0.0058409465
-0.032428052 -0.016294504 0.08244394 0.022165706 0.03270685 0.04602989 0.0040078065 -0.029437391
0.04996907 0.02441551 0.018914454 0.037397772 -0.12329432 -0.043581493 -0.05243721 0.019165013
-0.03210457 0.10300954 0.05815862 -0.02077456 -0.027679188 -0.004520909 -0.022458829 0.04286918
0.016980814 0.0006758311 -0.024236951 0.062203344 0.099512845 0.08425585 -0.085900195 0.013603936
-0.037835114 0.058340717 0.015489454 0.020271856 0.06305563 0.064271055 0.011307627 0.026386885
00000000: f796 803d 7960 b6bd 0666 d0bd 1935 acbd
00000010: f619 e63c 9c9b 32bc 333f dc3c 74ee 30bd
00000020: dbd3 763d 676c 243d c7ee c83c 3e1f 31bd
00000030: 8552 c03c 9422 023d 906e 9f3d 1278 37bd
00000040: 4c02 3fbd 354d f7bc 7f13 14bd 35d3 6ebd
00000050: 61a4 483c 587d 313c b4ee 4dbd e3b5 833d
00000060: 50e4 a13d 6830 e03c ffd3 353c 5d7e 373c
00000070: 82ba babc a997 76bc ae8e 5d3d 4324 c03d
00000080: 9232 673d 79a3 e5bc 3f06 723d 9c2d 1a3c
00000090: 54f3 893d ff79 39bd f7c6 babc c2b8 97bd
000000a0: 1f11 9ebd 4685 90bd ef30 cbbd a762 37bc
000000b0: 65db 4ebc b483 b63d 6e3d f3bd c4d2 093d
000000c0: dd31 d6bc 526f edbc 827e 073d f073 f2bc
000000d0: 1eac cfbd 38bc 61bd 14d4 833d 6662 99bc
000000e0: bc17 01bd cba9 87bd a7b3 c53d fbcd a7bc
000000f0: 53f5 21bd 306f b7bd 0f48 adbc 8f86 573d
00000100: 94fb a83d b6e8 56bd 8178 8d3d dd51 a33a
00000110: 9157 a83d 0146 adbd c1b4 d5bc c254 773b
00000120: d875 ce3d d5fe 1cbd 9599 c2bc 78dc 44bd
00000130: 2f81 bdbc fad0 f5bd c8b8 8a3d 806b ad3c
00000140: 8214 0bbb 3349 0cbc e022 973d d236 b1bc
00000150: f725 cdbc 3e6f cb3c 860a 0f3d d885 01bc
00000160: 9fcb 37bd 1ab1 713d 7c9f 2b3d ae09 063d
00000170: 9e1c db3d 20ac cd3c d014 5f3d a91b b53d
00000180: 9818 173c b04d 15bd 5297 0a3d 4f3d dcbc
00000190: c1bc dbbc d744 9e3d 9cb8 163d 1ef9 f7bc
000001a0: b2d9 80bd 2048 82bc 0244 77bc 9b7a 87bd
000001b0: 6648 3abc 5aa4 60bd b361 88bd 6c03 d53d
000001c0: d739 47bd 5f81 0ebd 1ca6 75bc 465c a73d
000001d0: 0091 1bbd 2d64 cfbc c9d3 9bbb 7238 973d
000001e0: 5a9e 363d 5104 a73c 1dc8 853d f9c1 913d
000001f0: 929c 373c 7e0f adbd 0c7e b73d 7620 bebc
00000200: 33fd 3bbd 1787 0a3d 8825 38bd 5216 863d
00000210: cfa4 2cbd d3cd d63d 6de1 80bc 29e0 83bd
00000220: 0025 933d bb5e 923d 004e bd3c 15f4 813d
00000230: d68b 92bd 68f3 a73d 3409 ee3d d5d1 123d
00000240: a68e 90bd af91 c8bc 3f97 cc3c 5023 aa3d
00000250: 6771 80bd 9fa0 c0bc a4f1 4f3d ff36 823d
00000260: 4d44 0dbc 4a4e 643d 5f9c fc3b 60b9 e03c
00000270: 6e76 9e3d 63fd 4dbd 943e 863d fd92 653c
00000280: ffaa d43c a99b bd3d c9dd 4bbd 10f3 4bbd
00000290: 5063 61bd 06a5 2fbd 4e16 573c d106 be3c
000002a0: 6acf b1bd eeb0 883d aebc 8abd 7c05 153d
000002b0: 29d1 27bb 71ea 24bc d530 4fbc 609d 1dbd
000002c0: 6c81 a2bd 9448 77bd ae61 0fbc a3bc 58bd
000002d0: 092e 823b cbf5 2dbc ffc1 f5bc 425d 313d
000002e0: 52fa b53d af10 1fbd ccbb 3bbd 5ff6 68bd
000002f0: 736f 9bbd 52a9 763d b52a 3d3d 8aca 7bbd
00000300: 2d3e 9f3d 8af3 5e3d 1363 843d a737 d5bc
00000310: 560e af3d 58a0 b73d 3f87 aa3d 063a d63c
00000320: 7a15 843c 4719 8e3c f2b2 c4bc fe81 97bd
00000330: d372 bc3d 2c33 4b3d 484f 383c ba94 03bd
00000340: 5347 933d dc52 673d 99d7 8e3d 42c5 33bd
00000350: eca5 86bd 5731 ac3d 06b2 4f3c 6965 bfbb
00000360: 47d3 04bd 0d7c 85bc 5ed8 a83d db94 b53c
00000370: 9ef7 053d d789 3c3d eb53 833b af26 f1bc
00000380: 5eac 4c3d 0903 c83c 7cf2 9a3c 682e 193d
00000390: bc81 fcbd 8282 32bd 66c8 56bd f2ff 9c3c
000003a0: 1580 03bd aaf6 d23d bc37 6e3d 692f aabc
000003b0: 77bf e2bc 2224 94bb 94fb b7bc 9897 2f3d
000003c0: 591b 8b3c 422a 313a 928c c6bc efc8 7e3d
000003d0: 64cd cb3d 558e ac3d 71ec afbd 0be3 5e3c
000003e0: fef8 1abd adf6 6e3d 7bc7 7d3c 2a11 a63c
000003f0: 4f23 813d 8ba0 833d a043 393c 4f29 d83c

decoder.2.weight f4 [59, 256]
-0.027443832 0.009857221 -0.021794062 0.09712769 0.06709752 -0.046191163 0.019693375 0.41234058
0.0064909393 -0.041029364 -0.10577978 0.19891678 -0.01346681 -0.029747942 0.03967452 -0.0685559
0.07198132 0.000765523 0.04014273 0.027419243 0.04700513 -0.031115932 0.031843178 -0.025865588
-0.007855418 0.08411002 0.07386773 -0.015020161 0.09250225 0.062427346 -0.033016082 0.033302058
0.07774598 0.055205233 0.03441112 0.0152983805 -0.0007305123 0.0013911414 -0.033566225 0.117850915
-0.026174117 0.01987452 -0.0066696997 -0.012010811 -0.04015024 -0.043915063 0.12128759 -0.0072631314
0.0011267783 -0.041987933 -0.10998344 0.04186453 0.32839245 0.056177717 0.06813102 0.038474146
-0.03170031 0.023486523 0.0082609225 -0.005162815 -0.07401537 -0.020202877 -0.09759909 0.08040545
0.052503865 0.15098171 -0.032116015 0.09758829 0.026290825 -0.015195211 -0.013403178 0.059184086
-0.023446523 0.0016548174 0.004832995 0.07234486 0.04083919 0.027193883 -0.019254232 -0.017143017
0.00044696167 0.054457437 0.0030043426 0.015088418 0.023628954 -0.05490313 0.11733438 0.016690118
0.02337867 -0.021574438 -0.04348044 0.042255506 -0.043309372 0.041423522 -0.047933 0.09351261
-0.012710855 0.013519128 -0.026317043 0.07506799 -0.051500615 0.03353266 -0.045893107 0.24377368
0.08715368 0.009306058 0.009460542 0.0037922126 -0.008905977 -0.033508815 -0.016600797 -0.03173837
-0.043818668 0.102129005 -0.036392804 0.26818925 0.023649806 0.021020515 0.026454136 -0.0002177993
0.016271507 -0.006969055 -0.04593246 0.12186493 -0.011907779 -0.022326311 0.03409337 -0.064401016
-0.04917319 -0.038718663 0.0026764642 0.16856861 0.049177263 0.10592085 -0.0892466 -0.044147268
-0.003426339 0.00079030986 0.052393317 -0.078976735 -0.028210977 -0.011332092 0.12717968 0.06510556
-0.010296028 -0.009291664 -0.01543001 0.115366556 0.06453112 0.057077438 0.028088551 -0.0056550815
-0.061158326 0.02036086 0.034949377 0.004358633 0.08630573 0.026754638 0.072223045 0.116334975
0.36574632 -0.0038246831 0.097809605 0.047146387 0.015476153 -0.0054918234 0.046102997 -0.008997291
0.03368603 0.012774493 -0.060554054 0.013641628 0.0607332 0.22628342 0.07234764 0.015253836
0.022405805 0.0025559522 -0.004420168 0.120241955 0.11050826 0.05406495 -0.032898437 0.018484121
-0.03611192 -0.00042620164 0.15058249 0.0023763264 0.029055769 0.0009876566 0.09152298 0.09571476
-0.05771057 0.017162886 0.022923168 0.05055294 0.045992468 -0.05645137 -0.026604503 0.00088612846
0.099238984 0.21260008 -0.053202707 -0.008909427 -0.014126163 0.01180356 -0.07419342 0.027123593
0.071642 -0.0021915569 -0.04095314 -0.0117653385 0.03154076 -0.040556397 0.06269884 0.015050575
0.22792947 0.08586947 0.06650729 0.0010204368 0.04706568 0.004950613 -0.013001845 -0.0110968705
-0.06884897 -0.03583704 0.034300543 -0.05876305 0.002300278 -0.010463517 -0.036633212 0.003981843
-0.020233972 0.040230993 0.035782963 -0.054073792 -0.016305141 0.06262118 -0.029591125 -0.035880975
0.1067391 -0.0077444017 0.011648876 -0.016482769 0.10683353 0.06491792 0.07280731 -0.024388887
0.07611137 0.045639303 -0.022762276 -0.061095826 0.023185771 0.08245927 0.016229097 0.080056824
00000000: e3d1 e0bc 2e80 213c 7689 b2bc e2ea c63d
00000010: 6d6a 893d f232 3dbd 0054 a13c 4e1e d33e
00000020: f2b1 d43b 680e 28bd 12a3 d8bd d7b0 4b3e
00000030: e5a3 5cbc f5b1 f3bc c081 223d 0967 8cbd
00000040: f16a 933d 61ad 483a b46c 243d 529e e03c
00000050: 7488 403d d7e6 febc fe6d 023d 12e4 d3bc
00000060: 03b4 00bc e041 ac3d f747 973d 1f17 76bc
00000070: d271 bd3d d1b3 7f3d df3b 07bd bd67 083d
00000080: 4939 9f3d e21e 623d adf2 0c3d 0fa6 7a3c
00000090: da7f 3fba f656 b63a bd7c 09bd d25b f13d
000000a0: 1a6b d6bc e4cf a23c 7f8d dabb fec8 44bc
000000b0: 9474 24bd 48e0 33bd a165 f83d 90ff edbb
000000c0: 68b0 933a 8afb 2bbd ff3e e1bd 247a 2b3d
000000d0: 0e23 a83e 9b1a 663d 4788 8b3d 1197 1d3d
000000e0: 2fd8 01bd cf66 c03c d258 073c d52c a9bb
000000f0: 5f95 97bd 8180 a5bc 08e2 c7bd 9dab a43d
00000100: 4b0e 573d f39a 1a3e 158c 03bd 5fdc c73d
00000110: db5f d73c 56f5 78bc 0199 5bbc 036b 723d
00000120: ec12 c0bc 75e6 d83a 1a5e 9e3b 8b29 943d
00000130: ff46 273d b5c5 de3c 0dbb 9dbc 836f 8cbc
00000140: 2e56 ea39 c30e 5f3d 81e4 443b 6935 773c
00000150: 8291 c13c 1be2 60bd 024d f03d b7b9 883c
00000160: a084 bf3c e0bc b0bc 8c18 32bd 1c14 2d3d
00000170: 2b65 31bd b6ab 293d 6555 44bd 8a83 bf3d
00000180: 3141 50bc 557f 5d3c d796 d7bc 3fbd 993d
00000190: 4ff2 52bd 8b59 093d 69fa 3bbd cf9f 793e
000001a0: a17d b23d 7078 183c 6400 1b3c c586 783b
000001b0: 60ea 11bc 8a40 09bd 65fe 87bc 1800 02bd
000001c0: 347b 33bd 0329 d13d 9f10 15bd 1a50 893e
000001d0: 3dbd c13c 3733 ac3c 58b6 d83c 0e61 64b9
000001e0: d34b 853c ac5c e4bb ad23 3cbd 5294 f93d
000001f0: d818 43bc abe5 b6bc 7da5 0b3d aee4 83bd
00000200: d469 49bd 7697 1ebd 9e67 2f3b 409d 2c3e
00000210: 196e 493d 08ed d83d ecc6 b6bd c4d3 34bd
00000220: 6e8c 60bb cc2c 4f3a 609a 563d 8ebe a1bd
00000230: b51a e7bc 3daa 39bc 643b 023e 1056 853d
00000240: acb0 28bc 103c 18bc 27ce 7cbc 4d45 ec3d
00000250: e428 843d 08ca 693d f619 e63c 434e b9bb
00000260: 2781 7abd d1cb a63c 1427 0f3d ddd2 8e3b
00000270: 0fc1 b03d 8b2c db3c ade9 933d 0841 ee3d
00000280: 1a43 bb3e 89a7 7abb 6750 c83d 921c 413d
00000290: b18f 7d3c c1f4 b3bb 7fd6 3c3d 6069 13bc
000002a0: 5dfa 093d 1b4c 513c 8707 78bd 2381 5f3c
000002b0: 60c3 783d d7b6 673e 002b 943d 3aeb 793c
000002c0: 618c b73c c381 273b 0fd7 90bb 6a41 f63d
000002d0: 2852 e23d 3673 5d3d 83c0 06bd 036c 973c
000002e0: 18ea 13bd d173 dfb9 4c32 1a3e 24bc 1b3b
000002f0: 5d06 ee3c 4274 813a 6670 bb3d 1a06 c43d
00000300: eb61 6cbd 2e99 8c3c 5ec9 bb3c 9a10 4f3d
00000310: 9962 3c3d 8d39 67bd b0f1 d9bc 134b 683a
00000320: cf3d cb3d d6b3 593e 15eb 59bd d8f8 11bc
00000330: 6c71 67bc b863 413c b8f2 97bd 4c32 de3c
00000340: 0ab9 923d 39a0 0fbb 7bbe 27bd 68c3 40bc
00000350: e230 013d 771e 26bd 4068 803d b096 763c
00000360: 5866 693e 55dc af3d f934 883d 2dc0 853a
00000370: f1c7 403d c038 a23b b105 55bc a6cf 35bc
00000380: b000 8dbd dcc9 12bd ba7e 0c3d 86b1 70bd
00000390: 43c0 163b 2c6f 2bbc b50c 16bd 1f7a 823b
000003a0: b7c1 a5bc 41c9 243d 2891 123d 7b7c 5dbd
000003b0: 5c92 85bc 893f 803d 1669 f2bc eef7 12bd
000003c0: 079a da3d c0c4 fdbb edda 3e3c df06 87bc
000003d0: 8acb da3d b0f3 843d 001c 953d 34cb c7bc
000003e0: 47e0 9b3d 47f0 3a3d f477 babc 9e3f 7abd
000003f0: 16f0 bd3c 68e0 a83d e2f2 843c d5f4 a33d

decoder.2.bias f4 [59]
0.0045638424 0.025887718 -0.040483277 -0.068135865 0.0052100923 0.03677087 0.008841368 -0.035458967
0.022323897 -0.03947864 0.03419615 0.008012555 0.048892453 -0.08256944 -0.06852252 -0.0060620722
0.02669844 -0.040585145 0.059981868 -0.05968993 0.02013086 0.07011034 0.06040635 -0.041082684
0.03498247 0.0038476624 0.01022932 0.02245514 -0.013922589 -0.0137125375 0.0077699088 -0.019684391
-0.0008215816 -0.051812124 0.061755937 -0.029771088 0.030190885 -0.0016656385 -0.04702367 0.013766519
-0.07559252 -0.07528403 -0.018177649 0.0151145235 -0.0015670962 -0.07545868 0.0004388333 -0.07785322
0.023467738 0.00039076142 -0.0045854268 -0.05615323 0.03186777 0.02801505 -0.01625687 -0.06978458
0.034084745 -0.077963814 0.07439705
00000000: 498c 953b 7b12 d43c cbd1 25bd d18a 8bbd
00000010: 6cb9 aa3b 0d9d 163d 63db 103c 6c3d 11bd
00000020: 9be0 b63c 5bb4 21bd 4311 0c3d 1747 033c
00000030: 7443 483d 2b1a a9bd 8955 8cbd 59a4 c6bb
00000040: b0b6 da3c 9c3c 26bd 8caf 753d 6e7d 74bd
00000050: 79e9 a43c 0396 8f3d a66c 773d 5146 28bd
00000060: c749 0f3d 1029 7c3b e198 273c d7f3 b73c
00000070: 921b 64bc 8daa 60bc b89a fe3b 2941 a1bc
00000080: 685f 57ba f338 54bd cbf3 7c3d 7fe2 f3bc
00000090: e052 f73c 8e51 daba e49b 40bd f78c 613c
000000a0: 40d0 9abd 832e 9abd 4be9 94bc e8a2 773c
000000b0: 0667 cdba 158a 9abd 3513 e639 8271 9fbd
000000c0: 6a3f c03c 1cdf cc39 5941 96bb ee00 66bd
000000d0: c787 023d d17f e53c 212d 85bc 38eb 8ebd
000000e0: 729c 0b3d 7eab 9fbd 7b5d 983d
